…
ation="relu")(input_layer) ...: _h = MaxPooling1D(pool_size=8, strides=8)(_h) ...: _h = SimpleRNN(128, return_sequences = True, activation="tanh")(_h) ...: _h = Flatten()(_h) ...: _h = Dense(1)(_h) ...: # Output layer ...: output_layer = Activation("sigmoid")(_h) ...: ...: model = Model(input_layer, output_layer, ) ...: model.compile(optimizer="sgd", loss="categorical_crossentropy",) ...: model.summary() ...: _________________________________________________________________ Layer (type) Output Shape Param # ================================================================= input_1 (InputLayer) (None, 500, 4) 0 _________________________________________________________________ conv1d_1 (Conv1D) (None, 485, 320) 20800 _________________________________________________________________ max_pooling1d_1 (MaxPooling1 (None, 60, 320) 0 _________________________________________________________________ simple_rnn_1 (SimpleRNN) (None, 60, 128) 57472 _________________________________________________________________ flatten_1 (Flatten) (None, 7680) 0 _________________________________________________________________ dense_1 (Dense) (None, 1) 7681 _________________________________________________________________ activation_1 (Activation) (None, 1) 0 ================================================================= Total params: 85,953 Trainable params: 85,953 Non-trainable params: 0 _________________________________________________________________ My understanding of a convolution in 1-dimensions with a kernel_size=16 and stride=1 is essentially stepping through a vector to get 16 element long subsets adjacent to each other. For example, bel
…
