[site]: crossvalidated
[post_id]: 204681
[parent_id]: 
[tags]: 
Keras neural network input shapes

In this example from the Keras repository , this convolutional neural network is trained: >>> model.summary() ------------------------------------------ Initial input shape: (None, 5000) ------- ------------------------------------------ Layer (name) Output Shape Param # ------------------------------------------ Embedding (embedding) (None, 100, 100) 500000 Dropout (dropout) (None, 100, 100) 0 Convolution1D (convolution1d) (None, 98, 250) 75250 MaxPooling1D (maxpooling1d) (None, 49, 250) 0 Flatten (flatten) (None, 12250) 0 Dense (dense) (None, 250) 3062750 Dropout (dropout) (None, 250) 0 Activation (activation) (None, 250) 0 Dense (dense) (None, 1) 251 Activation (activation) (None, 1) 0 ------------------------------------------ Total params: 3638251 ------------------------------------------ The imdb dataset contains reviews, each composed of different words. So given a 5000-word vocabulary, according to the Initial input shape the first embedding layer should get a vector of 5000 counters for each review. Each counter i saying how many times the i -th word appears, I suppose. 
…
