…
ing='same', activation='relu'), MaxPooling2D(), Flatten(), Dense(512, activation='relu'), Dense(1) ]) model.compile(optimizer='adam', loss=tf.keras.losses.BinaryCrossentropy(from_logits=True), metrics=['accuracy']) history = model.fit( train_data_gen, steps_per_epoch=84310// batch_size, epochs=epochs, validation_data=val_data_gen, validation_steps=21082 // batch_size) model.summary() gives Model: "sequential_4" _________________________________________________________________ Layer (type) Output Shape Param # ================================================================= conv2d_12 (Conv2D) (None, 150, 150, 16) 448 _________________________________________________________________ max_pooling2d_12 (MaxPooling (None, 75, 75, 16) 0 _________________________________________________________________ conv2d_13 (Conv2D) (None, 75, 75, 32) 4640 _________________________________________________________________ max_pooling2d_13 (MaxPooling (None, 37, 37, 32) 0 _________________________________________________________________ conv2d_14 (Conv2D) (None, 37, 37, 64) 18496 _________________________________________________________________ max_pooling2d_14 (MaxPooling (None, 18, 18, 64) 0 _________________________________________________________________ flatten_4 (Flatten) (None, 20736) 0 _________________________________________________________________ dense_8 (Dense) (None, 512) 10617344 _________________________________________________________________ dense_9 (Dense) (None, 1) 513 ================================================================= Total params: 10,641,441 Trainable params: 10,641,441 Non-trainable params: 0 _________________________________________________________________ I have made sure to change the class mode in my image data generator to categorical but my concern is that the loss and accuracy of my model is firstly, unchanging and secondly, the train a
…
