[site]: datascience
[post_id]: 116455
[parent_id]: 
[tags]: 
Feed output of neural networks into other network in tensorflow

I have two well trained neural networks, shown as: Model: "sequential" _________________________________________________________________ Layer (type) Output Shape Param # ================================================================= dense (Dense) (None, 42) 1806 dense_1 (Dense) (None, 128) 5504 dense_2 (Dense) (None, 256) 33024 dense_3 (Dense) (None, 512) 131584 dense_4 (Dense) (None, 256) 131328 dense_5 (Dense) (None, 128) 32896 dense_6 (Dense) (None, 64) 8256 dense_7 (Dense) (None, 32) 2080 dense_8 (Dense) (None, 28) 924 ================================================================= Total params: 347,402 Trainable params: 347,402 Non-trainable params: 0 _________________________________________________________________ Model: "sequential" _________________________________________________________________ Layer (type) Output Shape Param # ================================================================= dense (Dense) (None, 28) 812 dense_1 (Dense) (None, 128) 3712 dense_2 (Dense) (None, 256) 33024 dense_3 (Dense) (None, 512) 131584 dense_4 (Dense) (None, 256) 131328 dense_5 (Dense) (None, 128) 32896 dense_6 (Dense) (None, 64) 8256 dense_7 (Dense) (None, 32) 2080 dense_8 (Dense) (None, 4) 132 ================================================================= Total params: 343,824 Trainable params: 343,824 Non-trainable params: 0 And I want to combine them such that I replace the input layer of the second network with output layer of the first network. How can I do this in tensorflow?
