…
odel.add(Activation(activation='softmax',name='softmax')) model.summary() # load fake data earEEG=scipy.io.loadmat('forPython_dummy.mat') data=earEEG['data'][:,:] data=np.transpose(data) data=data[:,:,None] labels=earEEG['labels'] labels= keras.utils.to_categorical(labels) sgd=keras.optimizers.SGD() model.compile(loss='categorical_crossentropy', optimizer=sgd, metrics=['accuracy']) hist=model.fit(data, labels, epochs=10, batch_size=50,class_weight='auto',shuffle='True') And output: Layer (type) Output Shape Param # ================================================================= S2 (Flatten) (None, 6000) 0 _________________________________________________________________ F1 (Dense) (None, 40) 240040 _________________________________________________________________ F2 (Dense) (None, 10) 410 _________________________________________________________________ output (Dense) (None, 5) 55 _________________________________________________________________ softmax (Activation) (None, 5) 0 ================================================================= Total params: 240,505.0 Trainable params: 240,505.0 Non-trainable params: 0.0 _________________________________________________________________ Epoch 1/10 5000/5000 [==============================] - 0s - loss: 12.8945 - acc: 0.2000 Epoch 2/10 5000/5000 [==============================] - 0s - loss: 12.8945 - acc: 0.2000 Epoch 3/10 
…
