…
activation='relu')) model.add(Dropout(0.2)) model.add(Flatten()) model.add(Dense(32, activation= 'relu' )) model.add(Dense(25, activation= 'relu' )) model.add(Dense(1, activation= 'sigmoid' )) opt = SGD(lr =0.01,decay = 1e-6,momentum = 0.9) model.compile(loss= 'binary_crossentropy' , optimizer=opt, metrics=[ 'accuracy' ]) print ('model.input_shape ', model.input_shape) model.summary() model.fit(x_train, y_train, validation_data =(x_test,y_test), epochs=10, # 20:1 batch_size=8) #160 #change training epochs model.input_shape (None, 1, 500, 10) Layer (type) Output Shape Param # conv2d_1 (Conv2D) (None, 20, 500, 10) 200 max_pooling2d_1 (MaxPooling2 (None, 20, 250, 5) 0 conv2d_2 (Conv2D) (None, 20, 248, 3) 3620 dropout_1 (Dropout) (None, 20, 248, 3) 0 flatten_1 (Flatten) (None, 14880) 0 dense_1 (Dense) (None, 32) 476192 dense_2 (Dense) (None, 25) 825 dense_3 (Dense) (None, 1) 26 Total params: 480,863 Trainable params: 480,863 Non-trainable params: 0 WARNING:tensorflow:Variable *= will be deprecated. Use variable.assign_mul if you want assignment to the variable value or 'x = x * y' if you want a new python Tensor object. Train on 27999 samples, validate on 57540 samples Epoch 1/10 27999/27999 [==============================] - 37s 1ms/step - loss: 2.5676 - acc: 0.8407 - 
…
