…
r input and output parts of the pattern seq_x = data[self.lista].values[i:end_ix] seq_y = data["Volume"].values[end_ix-1] X.append(seq_x) y.append(seq_y) return array(X).astype("float32"),array(y).astype("float32") When I pass this data to the model I got the following error: Error when checking target: expected dense_30 to have 3 dimensions, but got array with shape (659, 1)) The question is, why does this error arise? And, how do I go about fixing this? Here is the summary of _________________________________________________________________ Layer (type) Output Shape Param conv1d_38 (Conv1D) (None, 9, 64) 960 _________________________________________________________________ conv1d_39 (Conv1D) (None, 8, 128) 16512 _________________________________________________________________ max_pooling1d_18 (MaxPooling (None, 4, 128) 0 _________________________________________________________________ lstm_18 (LSTM) (None, 4, 200) 263200 _________________________________________________________________ dense_29 (Dense) (None, 4, 32) 6432 _________________________________________________________________ dense_30 (Dense) (None, 4, 1) 33 Many thanks in advance
