…
layers.Flatten(), # 512 neuron hidden layer tf.keras.layers.Dense(512, activation='relu'), # Only 1 output neuron. It will contain a value from 0-1 where 0 for 1 class ('horses') and 1 for the other ('humans') tf.keras.layers.Dense(1, activation='sigmoid') ]) When I go through the summary, I can see that the # of parameters does not seem to match up with the theory that I have learned. Summary: Model: "sequential" _________________________________________________________________ Layer (type) Output Shape Param # ================================================================= conv2d (Conv2D) (None, 298, 298, 16) 448 _________________________________________________________________ max_pooling2d (MaxPooling2D) (None, 149, 149, 16) 0 _________________________________________________________________ conv2d_1 (Conv2D) (None, 147, 147, 32) 4640 _________________________________________________________________ max_pooling2d_1 (MaxPooling2 (None, 73, 73, 32) 0 _________________________________________________________________ conv2d_2 (Conv2D) (None, 71, 71, 64) 18496 _________________________________________________________________ max_pooling2d_2 (MaxPooling2 (None, 35, 35, 64) 0 _________________________________________________________________ conv2d_3 (Conv2D) (None, 33, 33, 64) 36928 _________________________________________________________________ max_pooling2d_3 (MaxPooling2 (None, 16, 16, 64) 0 _________________________________________________________________ conv2d_4 (Conv2D) (None, 14, 14, 64) 36928 _________________________________________________________________ max_pooling2d_4 (MaxPooling2 (None, 7, 7, 64) 0 _________________________________________________________________ flatten (Flatten) (None, 3136) 0 _________________________________________________________________ dense (Dense) (None, 512) 1606144 _________________________________________________________________ dense_1 (Dense) (None, 1) 513 ================================================================= Total params: 1,704,097 Trainable params: 1,704,097 Non-trainable params: 0 The first value $448$ matches the formula: (filter(width) * filter(height) * no_of_channels * no_of_filters_current * no_of_filters_previous ) + bias $(3 * 3 * 3 * 16 * 1)+16$ . However the second value $4640$ does not add up for me. I am supposed to get $(3 * 3 * 3 * 32 * 16)+32 = 13856$ Any idea where I am going wrong in the calculation?
