…
I am trying to manually compute the predictions of the Keras library for a convolutional neural network. However, I am struggling a lot to match my final result with the ones provided by Keras. I do appreciate it if you could help me with this question. I have a $r\times c$ tensor that includes categorical values. I apply the one-hot encoding method to convert this tensor to zeros and ones, which results in a $r\times c \times m$ tensor (a multi-channel tensor). I am trying to develop a regressor CNN to predict some quantitative values. The model summary is as follows: Model: "sequential" _________________________________________________________________ Layer (type) Output Shape Param # ================================================================= conv2d (Conv2D) (None, 27, 3, 10) 550 conv2d_1 (Conv2D) (None, 27, 3, 20) 1820 max_pooling2d (MaxPooling2D (None, 9, 1, 20) 0 ) flatten (Flatten) (None, 180) 0 dense (Dense) (None, 20) 3620 dropout (Dropout) (None, 20) 0 dense_1 (Dense) (None, 10) 210 dense_2 (Dense) (None, 1) 11 ================================================================= Total params: 6,211 Trainable params: 6,211 Non-trainable params: 0 _________________________________________________________________ My understanding is that each channel/kernel has a bias that will be added to all of its elements after the convolution. Is that correct? For the flattening layer, my understanding is that one should
…
