…
) # Decoder Layers decoded1 = Dense(20, activation = 'relu')(encoded13) decoded2 = Dense(40, activation = 'relu')(decoded1) decoded13 = Dense(ncol, activation = 'sigmoid')(decoded2) # Combine Encoder and Deocder layers autoencoder = Model(inputs = input_dim, outputs = decoded13) # Compile the Model autoencoder.compile(optimizer = 'adadelta', loss = 'mean_squared_error') Autoencoder summary: Model: "model_17" _________________________________________________________________ Layer (type) Output Shape Param # ================================================================= input_14 (InputLayer) (None, 113) 0 _________________________________________________________________ dense_112 (Dense) (None, 40) 4560 _________________________________________________________________ dense_113 (Dense) (None, 20) 820 _________________________________________________________________ dense_114 (Dense) (None, 3) 63 _________________________________________________________________ dense_115 (Dense) (None, 20) 80 _________________________________________________________________ dense_116 (Dense) (None, 40) 840 _________________________________________________________________ dense_117 (Dense) (None, 113) 4633 ================================================================= Total params: 10,996 Trainable params: 10,996 Non-trainable params: 0 Fitting: autoencoder.fit(X_train, X_train, nb_epoch = 5, batch_size = 32, shuffle = False, validation_data = (X_test, X_test)) Evaluation: encoder = Model(inputs = input_dim, outputs = encoded13) encoded_input = Input(shape = (encoding_dim, )) encoded_train = pd.
…
