[site]: datascience
[post_id]: 84795
[parent_id]: 
[tags]: 
Calculate the number of params of a neural network

I'm not clear how the number of params on my Convolutional Network in keras is estimated. Could you help me to understand this? Model: "sequential_7" _________________________________________________________________ Layer (type) Output Shape Param # ================================================================= conv2d_7 (Conv2D) (None, 26, 26, 64) 640 _________________________________________________________________ max_pooling2d_7 (MaxPooling2 (None, 13, 13, 64) 0 _________________________________________________________________ flatten_7 (Flatten) (None, 10816) 0 _________________________________________________________________ dropout_2 (Dropout) (None, 10816) 0 _________________________________________________________________ dense_14 (Dense) (None, 128) 1384576 _________________________________________________________________ dense_15 (Dense) (None, 10) 1290 ================================================================= Total params: 1,386,506 Trainable params: 1,386,506 Non-trainable params: 0
