…
ers.Conv2D(64, 3, activation="relu")(block_3_output) x = layers.GlobalAveragePooling2D()(x) x = layers.Dense(256, activation="relu")(x) #x = layers.Dropout(0.5)(x) outputs = layers.Dense(3, activation='softmax')(x) model = keras.Model(inputs, outputs, name="toy_resnet") model.summary() ---------- Model: "toy_resnet"Model: "toy_resnet" __________________________________________________________________________________________________ Layer (type) Output Shape Param # Connected to ================================================================================================== img (InputLayer) [(None, 224, 224, 3) 0 __________________________________________________________________________________________________ conv2d (Conv2D) (None, 222, 222, 64) 1792 img[0][0] __________________________________________________________________________________________________ conv2d_1 (Conv2D) (None, 220, 220, 128 73856 conv2d[0][0] __________________________________________________________________________________________________ max_pooling2d (MaxPooling2D) (None, 73, 73, 128) 0 conv2d_1[0][0] __________________________________________________________________________________________________ conv2d_2 (Conv2D) (None, 73, 73, 64) 73792 max_pooling2d[0][0] __________________________________________________________________________________________________ conv2d_3 (Conv2D) (None, 73, 73, 128) 73856 conv2d_2[0][0] __________________________________________________________________________________________________ add (Add) (None, 73, 73, 128) 0 conv2d_3[0][0] max_pooling2d[0][0] __________________________________________________________________________________________________ conv2d_4 (Conv2D) (None, 73, 73, 64) 73792 add[0][0] __________________________________________________________________________________________________ conv2d_5 (Conv2D) (None, 73, 73, 128) 73856 conv2d_4[0][0] __________________________________________________________________________________________________ add_1 (Add) (None, 73, 73, 128) 0 conv2d_5[0][0] add[0][0] __________________________________________________________________________________________________ conv2d_6 (Conv2D) (None, 71, 71, 64) 73792 add_1[0][0] __________________________________________________________________________________________________ global_average_pooling2d (Globa (None, 64) 0 conv2d_6[0][0] __________________________________________________________________________________________________ dense (Dense) (None, 256) 16640 global_average_pooling2d[0][0] __________________________________________________________________________________________________ dense_1 (Dense) (None, 3) 771 dense[0][0] ================================================================================================== Total params: 462,147 Trainable params: 462,147 Non-trainable params: 0 I have trained it for 50 epochs and made several changes during my testing all with the same result where training accuracy and validation accuracy begins to flucturate after 20 epochs. Do i increase the depth, incre
…
