…
'same')(d7) decoded = Cropping1D(cropping=(1,2))(d8) # this is the added step decoder = Model(latent_inputs, decoded, name="decoder") decoder.summary() This is the summary printed: Model: "encoder" __________________________________________________________________________________________________ Layer (type) Output Shape Param # Connected to ================================================================================================== input_99 (InputLayer) [(1, 933, 1)] 0 __________________________________________________________________________________________________ conv1d_209 (Conv1D) (1, 933, 8) 32 input_99[0][0] __________________________________________________________________________________________________ max_pooling1d_90 (MaxPooling1D) (1, 466, 8) 0 conv1d_209[0][0] __________________________________________________________________________________________________ conv1d_210 (Conv1D) (1, 466, 4) 100 max_pooling1d_90[0][0] __________________________________________________________________________________________________ max_pooling1d_91 (MaxPooling1D) (1, 233, 4) 0 conv1d_210[0][0] __________________________________________________________________________________________________ average_pooling1d_45 (AveragePo (1, 116, 4) 0 max_pooling1d_91[0][0] __________________________________________________________________________________________________ flatten_45 (Flatten) (1, 464) 0 average_pooling1d_45[0][0] __________________________________________________________________________________________________ dense_89 (Dense) (1, 2) 930 flatten_45[0][0] __________________________________________________________________________________________________ z_mean (Dense) (1, 2) 6 dense_89[0][0] __________________________________________________________________________________________________ z_log_var (Dense) (1, 2) 6 dense_89[0][0] __________________________________________________________________________________________________ sampling_45 (Sampling) (1, 2) 0 z_mean[0][0] z_log_var[0][0] ================================================================================================== Total params: 1,074 Trainable params: 1,074 Non-trainable params: 0 __________________________________________________________________________________________________ Model: "decoder" _________________________________________________________________ Layer (type) Output Shape Param # ================================================================= input_100 (InputLayer) [(None, 2)] 0 _________________________________________________________________ dense_90 (Dense) (None, 468) 1404 _________________________________________________________________ reshape_44 (Reshape) (None, 117, 4) 0 _________________________________________________________________ conv1d_211 (Conv1D) (None, 117, 4) 20 _________________________________________________________________ up_sampling1d_117 (UpSamplin (None, 234, 4) 0 _________________________________________________________________ conv1d_212 (Conv1D) (None, 234, 8) 40 _________________________________________________________________ up_sampling1d_118 (UpSamplin (None, 468, 8) 0 _________________________________________________________________ up_sampling1d_119 (UpSamplin (None, 936, 8) 0 _________________________________________________________________ conv1d_213 (Conv1D) (None, 936, 1) 9 _________________________________________________________________ cropping1d_18 (Cropping1D) (None, 933, 1) 0 ================================================================= Total params: 1,473 Trainable params: 1,473 Non-trainable params: 0 ______________________________ However when I try to fit my model I get the following exception: ValueError: Invalid reduction dimension 2 for input with 2 dimensions. for '{{node Sum}} = Sum[T=DT_FLOAT, Tidx=DT_INT32, keep_dims=false](Mean, Sum/reduction_indices)'
…
