…
t_1) output_1 = Dense(units = 1, activation = 'linear', name = 'output_1')(output_1) model = tf.keras.models.Model(inputs = [input_1, input_2, input_3], outputs = [output_1], name = 'many_to_one_model') return model many_to_one_model(hyperparameter_space) Model summary - ''' Model: "many_to_one_model" ______________________________________________________________________________________________ Layer (type) Output Shape Param # Connected to ______________________________________________________________________________________________ input_3 (InputLayer) [(None, 1, 130)] 0 flatten_5 (Flatten) (None, 130) 0 input_3[0][0] input_1 (InputLayer) [(None, 1, 53)] 0 input_2 (InputLayer) [(None, 1, 19)] 0 repeat_vector_5 (RepeatVector) (None, 1, 130) 0 flatten_5[0][0] concatenate_5 (Concatenate) (None, 1, 202) 0 input_1[0][0] input_2[0][0] repeat_vector_5[0][0] gru_5 (GRU) (None, 64) 51456 concatenate_5[0][0] dropout_5 (Dropout) (None, 64) 0 gru_5[0][0] output_1 (Dense) (None, 1) 65 dropout_5[0][0] _____________________________________________________________________________________________ Total params: 51,521 Trainable params: 51,521 Non-trainable params: 0 ''' Adaptive loss implementation - import robust_loss.general import robust_loss.adaptive model = many_to_one_model(hyperparameter_space) adaptive_lossfun = robust_loss.adaptive.AdaptiveLossFunction(num_channels = 1, fl
…
