…
el=Sequential() model.add(Convolution2D(128, (7, 7), activation='relu')) model.add(Dropout(0.2)) model.add(Convolution2D(64, (5, 5), activation='relu')) model.add(Dropout(0.2)) model.add(Convolution2D(64, (5, 5), activation='relu')) model.add(Dropout(0.2)) model.add(Convolution2D(16, (5, 5), activation='relu')) model.add(Dropout(0.2)) model.add(Convolution2D(1, (5, 5), activation='relu')) model.add(Flatten()) model.build((None,3, 224, 224)) #print(model.summary()) return model Layer (type) Output Shape Param # ================================================================= conv2d_1 (Conv2D) (None, 128, 218, 218) 18944 _________________________________________________________________ dropout_1 (Dropout) (None, 128, 218, 218) 0 _________________________________________________________________ conv2d_2 (Conv2D) (None, 64, 214, 214) 204864 _________________________________________________________________ dropout_2 (Dropout) (None, 64, 214, 214) 0 _________________________________________________________________ conv2d_3 (Conv2D) (None, 64, 210, 210) 102464 _________________________________________________________________ dropout_3 (Dropout) (None, 64, 210, 210) 0 _________________________________________________________________ conv2d_4 (Conv2D) (None, 16, 206, 206) 25616 _________________________________________________________________ dropout_4 (Dropout) (None, 16, 206, 206) 0 _________________________________________________________________ conv2d_5 (Conv2D) (None, 1, 202, 202) 401 _________________________________________________________________ flatten_1 (Flatten) (None, 40804) 0 ================================================================= Total params: 352,289 Trainable params: 352,289 Non-trainable params: 0 EDIT 1- I added- kernel_initializer='random_uniform',bias_initializer='zeros' to all the layers so that it would stop predicting everything as 0. The training losses are decreasing now but the validation loss and accuracy aren't being changed. Edit 2- Resolved it. It was an issue with my dataset.
