…
s in your code but input_shape=(4, 1) modelcnn = Sequential() modelcnn.add(Conv1D(filters=64, kernel_size=2, activation='relu', input_shape=(4, 1))) modelcnn.add(MaxPooling1D(pool_size=2)) modelcnn.add(Flatten()) modelcnn.add(Dense(50, activation='relu')) modelcnn.add(Dense(1)) modelcnn.compile(optimizer='adam', loss='mse') I print the summary print('Model summary') print(modelcnn.summary()) Output Model summary _________________________________________________________________ Layer (type) Output Shape Param # ================================================================= conv1d_1 (Conv1D) (None, 3, 64) 192 _________________________________________________________________ max_pooling1d_1 (MaxPooling (None, 1, 64) 0 _________________________________________________________________ flatten_1 (Flatten) (None, 64) 0 _________________________________________________________________ dense_1 (Dense) (None, 50) 3250 _________________________________________________________________ dense_2 (Dense) (None, 1) 51 ================================================================= Total params: 3,493 Trainable params: 3,493 Non-trainable params: 0 Then I train it using the same command you wrote in your question but verbose=1 to print some information during training modelcnn.fit(data1cnn, y, epochs=1000, verbose=1) and it trains without a problem given that I get as output Epoch 1/1000 95751/95751 [========
…
