…
dd(Dense(512)) # 512 units # Layer 2 CNN_model.add(Dense(512, activation='relu')) # 512 units CNN_model.add(Dropout(0.5)) # Layer 3 CNN_model.add(Dense(8, activation='softmax')) CNN_model.compile(optimizer="Adam", loss = 'categorical_crossentropy', metrics = ['acc']) CNN_model.fit_generator(train_it, steps_per_epoch=19, validation_data=val_it, validation_steps=5) Here is the model summary : Model: "sequential_11" _________________________________________________________________ Layer (type) Output Shape Param ================================================================= conv2d_29 (Conv2D) (None, 700, 460, 32) 896 _________________________________________________________________ activation_27 (Activation) (None, 700, 460, 32) 0 _________________________________________________________________ batch_normalization_27 (Batc (None, 700, 460, 32) 128 _________________________________________________________________ max_pooling2d_27 (MaxPooling (None, 350, 230, 32) 0 _________________________________________________________________ conv2d_30 (Conv2D) (None, 350, 230, 32) 9248 _________________________________________________________________ activation_28 (Activation) (None, 350, 230, 32) 0 _________________________________________________________________ batch_normalization_28 (Batc (None, 350, 230, 32) 128 _________________________________________________________________ max_pooling2d_28 (MaxPooling (None, 175, 115, 32) 0 _________________________________________________________________ flatten_8 (Flatten) (None, 644000) 0 _________________________________________________________________ dense_24 (Dense) (None, 512) 329728512 _________________________________________________________________ dense_25 (Dense) (None, 512) 262656 _________________________________________________________________ dropout_8 (Dropout) (None, 512) 0 _________________________________________________________________ dense_26 (Dense) (None, 8) 4104 ================================================================= Total params: 330,005,672 Trainable params: 330,005,544 Non-trainable params: 128 _________________________________________________________________ None I am getting this error and I don't know how to fix it : --------------------------------------------------------------------------- InvalidArgumentError Traceback (most recent cal
…
