…
Issue replicating AutoKeras StructuredDataClassifier

I have a model that I generated using AutoKeras and I want to replicate the model so that I can construct it with keras tuner to do further hyperparameter tuning. But I am running into issues replicating the model. The model summary of the autokeras model is: Model: "model" _________________________________________________________________ Layer (type) Output Shape Param # ================================================================= input_1 (InputLayer) [(None, 11)] 0 _________________________________________________________________ multi_category_encoding (Mul (None, 11) 0 _________________________________________________________________ normalization (Normalization (None, 11) 23 _________________________________________________________________ dense (Dense) (None, 16) 192 _________________________________________________________________ re_lu (ReLU) (None, 16) 0 _________________________________________________________________ dense_1 (Dense) (None, 32) 544 _________________________________________________________________ re_lu_1 (ReLU) (None, 32) 0 _________________________________________________________________ dense_2 (Dense) (None, 3) 99 _________________________________________________________________ classification_head_1 (Softm (None, 3) 0 ================================================================= Total params: 858 Trainable params: 835 Non-trainable params: 23 Layer config {'batch_input_shape': (None, 11), 'dtype': 'string', 'sparse': False, 'ragged': False, 'name': 'input_1'} {'name': 'multi_category_encoding', 'trainable': True, 'dtype': 'float32', 'encoding': ListWrapper(['int', 'int', 'int', 'int', 'int', 'int', 'int', 
…
