…
, tf.keras.layers.Conv1D(input_shape=(n_timesteps, n_features), activation='relu', kernel_size=2, filters=64), tf.keras.layers.MaxPooling1D(strides=3), # also GlobalMaxPooling1D() is ok tf.keras.layers.LayerNormalization(axis=1), tf.keras.layers.Flatten(), tf.keras.layers.Dense(n_outputs, activation='softmax') ]) model.compile('adam', 'binary_crossentropy', metrics=['accuracy']) model.summary() Model: "sequential" _________________________________________________________________ Layer (type) Output Shape Param # ================================================================= conv1d (Conv1D) (None, 81, 32) 96 _________________________________________________________________ max_pooling1d (MaxPooling1D) (None, 27, 32) 0 _________________________________________________________________ layer_normalization (LayerNo (None, 27, 32) 54 _________________________________________________________________ conv1d_1 (Conv1D) (None, 26, 64) 4160 _________________________________________________________________ max_pooling1d_1 (MaxPooling1 (None, 9, 64) 0 _________________________________________________________________ layer_normalization_1 (Layer (None, 9, 64) 18 _________________________________________________________________ flatten (Flatten) (None, 576) 0 _________________________________________________________________ dense (Dense) (None, 82) 47314 ================================================================= Total params: 51,642 Trainable params: 51,642 Non-trainable params: 0 history = model.fit(X_train, y_train, epochs=10, verbose=1, validation_data=(X, y)) Train on 180568 samples, validate on 1000 samples Epoch 1/10 180568/180568 [==============================] - 130s 718us/sample - loss: 0.0123 - acc: 1.0000 - val_loss: 0.0695 - v
…
