…
0s 595us/step - loss: 0.2857 - acc: 1.0000 - val_loss: 0.3154 - val_acc: 1.0000 Epoch 39/40 15/15 [==============================] - 0s 532us/step - loss: 0.2773 - acc: 1.0000 - val_loss: 0.3082 - val_acc: 1.0000 Epoch 40/40 15/15 [==============================] - 0s 535us/step - loss: 0.2694 - acc: 1.0000 - val_loss: 0.3014 - val_acc: 1.0000 22/22 [==============================] - 0s 680us/step Model summary: _________________________________________________________________ Layer (type) Output Shape Param # ================================================================= conv2d_1 (Conv2D) (None, 3, 20, 64) 320 _________________________________________________________________ max_pooling2d_1 (MaxPooling2 (None, 2, 19, 64) 0 _________________________________________________________________ dropout_1 (Dropout) (None, 2, 19, 64) 0 _________________________________________________________________ conv2d_2 (Conv2D) (None, 2, 19, 128) 32896 _________________________________________________________________ max_pooling2d_2 (MaxPooling2 (None, 2, 19, 128) 0 _________________________________________________________________ dropout_2 (Dropout) (None, 2, 19, 128) 0 _________________________________________________________________ conv2d_3 (Conv2D) (None, 2, 19, 128) 16512 _________________________________________________________________ max_pooling2d_3 (MaxPooling2 (None, 2, 19, 128) 0 _________________________________________________________________ dropout_3 (Dropout) (None, 2, 19, 128) 0 _________________________________________________________________ flatten_1 (Flatten) (None, 4864) 0 _________________________________________________________________ dense_1 (Dense) (None, 64) 311360 _________________________________________________________________ dropout_4 (Dropout) (None, 64) 0 _________________________________________________________________ dense_2 (Dense) (None, 32) 2080 _________________________________________________________________ dropout_5 (Dropout) (None, 32) 0 _________________________________________________________________ dense_3 (Dense) (None, 6) 198 ================================================================= Total params: 363,366 Trainable params: 363,366 Non-trainable params: 0 _________________________________________________________________ Train score: 0.27449503540992737 Train accuracy: 1.0
