…
ernel_regularizer = regularizers.l2(WD), return_sequences=True)), tf.keras.layers.Bidirectional(tf.keras.layers.LSTM(LSTM2_DIM, dropout=0.2, kernel_regularizer = regularizers.l2(WD))), tf.keras.layers.Dense(DENSE_DIM, activation='relu'), tf.keras.layers.Dense(7, activation='softmax') ]) # Set the training parameters model_lstm.compile(loss='sparse_categorical_crossentropy', optimizer=tf.keras.optimizers.Adam(), metrics=[tf.keras.metrics.Accuracy()]) model_lstm.summary() Layer (type) Output Shape Param # ================================================================= embedding_31 (Embedding) (None, 384, 128) 1280000 bidirectional_67 (Bidirecti (None, 384, 64) 41216 onal) bidirectional_68 (Bidirecti (None, 32) 10368 onal) dense_108 (Dense) (None, 32) 1056 dense_109 (Dense) (None, 7) 231 ================================================================= I am having ValueError: Shapes (None, 1) and (None, 7) are incompatible when I run: epochs = 12 batch_size = 250 history = model_lstm.fit(X_train, y_train, epochs=epochs, validation_data=(X_test, y_test), batch_size=batch_size) What should I be changing? Also I am using an embedding layer for this model with 3 parameters (input_dim
…
