…
ers, as the convolutions themselves reduce the size of the tensor to some extent already and the dimensions are not too large. The resulting model has multiple 1D Convolution / Dropout layer pairs (the output from the convolution layers goes through a non-linear activation function), followed by one flatten and one dense layer leading up to the output. An example of a model summary is given below (I use Keras): _________________________________________________________________ Layer (type) Output Shape Param # ================================================================= conv1d_66 (Conv1D) (None, 34, 16) 336 _________________________________________________________________ dropout_66 (Dropout) (None, 34, 16) 0 _________________________________________________________________ conv1d_67 (Conv1D) (None, 31, 32) 2080 _________________________________________________________________ dropout_67 (Dropout) (None, 31, 32) 0 _________________________________________________________________ conv1d_68 (Conv1D) (None, 28, 64) 8256 _________________________________________________________________ dropout_68 (Dropout) (None, 28, 64) 0 _________________________________________________________________ conv1d_69 (Conv1D) (None, 25, 128) 32896 _________________________________________________________________ dropout_69 (Dropout) (None, 25, 128) 0 _________________________________________________________________ flatten_28 (Flatten) (None, 3200) 0 _________________________________________________________________ dense_28 (Dense) (None, 1) 3201 ================================================================= Total params: 46,769 Trainable params: 46,769 Non-trainable params: 0 So my question is: do pooling layers serve any purpose in this type of problem (other than to decrease the tensor length without introducing trainable parameters)? In other words, am I doing something conceptually wrong or potentially hurting my model's performance by not using pooling layers? Can you think of any reason why a pooling layer could in fact be beneficial in this scenario?
