…
Using Generative Adversarial Networks for joint distribution estimation

I am trying to use GAN model to generate N-dimensional samples with joint probability distribution that looks like some training data. I am having trouble getting the probability distribution of the generated data to match the training data. As a training example, I created a 2-dimensional training dataset from bimodal Gaussian distribution as shown here: I am using dense layers for both generator and discriminator networks. Like this GenerativeAdversarialNetwork( (generator): Sequential( (0): Dropout(p=0.2, inplace=False) (1): Linear(in_features=100, out_features=100, bias=True) (2): Tanh() (3): Linear(in_features=100, out_features=100, bias=True) (4): Tanh() (5): Linear(in_features=100, out_features=100, bias=True) (6): Tanh() (7): Linear(in_features=100, out_features=100, bias=True) (8): Tanh() (9): Linear(in_features=100, out_features=2, bias=True) (10): Tanh() (11): Linear(in_features=2, out_features=2, bias=True) ) (discriminator): Sequential( (0): Linear(in_features=2, out_features=32, bias=True) (1): LeakyReLU(negative_slope=0.01) (2): Linear(in_features=32, out_features=32, bias=True) (3): LeakyReLU(negative_slope=0.01) (4): Linear(in_features=32, out_features=32, bias=True) (5): LeakyReLU(negative_slope=0.01) (6): Linear(in_features=32, out_features=16, bias=True) (7): LeakyReLU(negative_slope=0.01) (8): Dropout(p=0.2, inplace=False) (9): Linear(in_features=16, out_features=1, bias=True) (10): Sigmoid() ) ) The closest that I could get was some bimodal distribution that is densely located at the two centers of the bimodal Gaussian distributions from the real data. I have tried using the following recommendations from here and other places without any success. Using Adam optimizer Using dropout layers Playing with bigger networks Playing w
…
