…
tion='relu')) model.add(BatchNormalization()) model.add(Dropout(0.5)) model.add(Flatten()) model.add(Dense(10, activation='relu')) model.add(BatchNormalization()) model.add(Dense(4, activation='relu')) model.add(Dense(1, activation='sigmoid')) opt=keras.optimizers.Nadam(lr=0.01) model.compile(optimizer=opt, loss="binary_crossentropy", metrics=["accuracy"]) Here is the quick model summary: Model: "sequential_10" _________________________________________________________________ Layer (type) Output Shape Param # ================================================================= conv1d_35 (Conv1D) (None, 6, 16) 48 _________________________________________________________________ batch_normalization_21 (Batc (None, 6, 16) 64 _________________________________________________________________ conv1d_36 (Conv1D) (None, 5, 8) 264 _________________________________________________________________ batch_normalization_22 (Batc (None, 5, 8) 32 _________________________________________________________________ conv1d_37 (Conv1D) (None, 4, 4) 68 _________________________________________________________________ batch_normalization_23 (Batc (None, 4, 4) 16 _________________________________________________________________ conv1d_38 (Conv1D) (None, 4, 2) 10 _________________________________________________________________ batch_normalization_24 (Batc (None, 4, 2) 8 _________________________________________________________________ dropout_8 (Dropout) (None, 4, 2) 0 _________________________________________________________________ flatten_8 (Flatten) (None, 8) 0 _________________________________________________________________ dense_23 (Dense) (None, 10) 90 _________________________________________________________________ batch_normalization_25 (Batc (None, 10) 40 _________________________________________________________________ dense_24 (Dense) (None, 4) 44 _________________________________________________________________ dense_25 (Dense) (None, 1) 5 ================================================================= Total params: 689 Trainable params: 609 Non-trainable params: 80 _________________________________________________________________ Any hints or suggestions on this matter would be very helpful.
