…
I'm trying to train a siamese network which contains a CNN and an embedding layer at the end to yield 2 similar (close) vectors for 2 images of the same person. I'm using the LFW_Cropped dataset, and some custom made generators. The generators are tested and returns batches of 50% 50% Same and Different pairs of images with the correct label. The labels for same and different outcome are: SAME = 1 -> (named as 'yes' in my code) DIFFERENT = 0 -> (named as 'no' in my code) My model's body architecture is as below: Model: "model" _________________________________________________________________ Layer (type) Output Shape Param # ================================================================= input_3 (InputLayer) [(None, 224, 224, 3)] 0 _________________________________________________________________ separable_conv2d (SeparableC (None, 224, 224, 64) 331 _________________________________________________________________ max_pooling2d (MaxPooling2D) (None, 112, 112, 64) 0 _________________________________________________________________ separable_conv2d_1 (Separabl (None, 112, 112, 64) 4736 _________________________________________________________________ max_pooling2d_1 (MaxPooling2 (None, 56, 56, 64) 0 _________________________________________________________________ batch_normalization (BatchNo (None, 56, 56, 64) 256 _________________________________________________________________ separable_conv2d_2 (Separabl (None, 56, 56, 256) 17216 _________________________________________________________________ batch_normalization_1 (Batch (None, 56, 56, 256) 1024 _________________________________________________________________ max_pooling2d_2 (MaxPooling2 (None, 28, 28, 256) 0 _________________________________________________________________ dropout (Dropout) (None, 28, 28, 256) 0 _________________________________________________________________ separable_conv2d_3 (Separabl (None, 28, 28, 512) 133888 _________________________________________________________________ separable_conv2d_4 (Separabl (None, 28, 28, 512) 267264 _________________________________________________________________ max_pooling2d_3 (MaxPooling2 (None, 14, 14, 512) 0 _________________________________________________________________ dropout_1 (Dropout) (None, 14, 14, 512) 0 _________________________________________________________________ separable_conv2d_5 (Separabl (None, 14, 14, 512) 267264 _________________________________________________________________ batch_normalization_2 (Batch (None, 14, 14, 512) 2048 _________________________________________________________________ max_pooling2d_4 (MaxPooling2 (None, 7, 7, 512) 0 _________________________________________________________________ dropout_2 (Dropout) (None, 7, 7, 512) 0 _________________________________________________________________ flatten (Flatten) (None, 25088) 0 _________________________________________________________________ EmbeddingsVect (Dense) (None, 1024) 25691136 ================================================================= Total params: 26,385,163 Trainable params: 26,383,499 Non-trainable params: 1,664 ___________________ And the whole Siamese network looks like the one below: Model: "model_1" __________________________________________________________________________________________________ Layer (type) Output Shape Param # Connected to ================================================================================================== input_1 (InputLayer) [(None, 224, 224, 3) 0 __________________________________________________________________________________________________ input_2 (InputLayer) [(None, 224, 224, 3) 0 __________________________________________________________________________________________________ model (Functional) (None, 1024) 26385163 input_1[0][0] input_2[0][0] __________________________________________________________________________________________________ lambda (Lambda) (None, 1024) 0 model[0][0] model[1][0] __________________________________________________________________________________________________ dense (Dense) (None, 1) 1025 lambda[0][0] ================================================================================================== Total params: 26,386,188 Trainable params: 26,384,524 Non-trainable params: 1,664 __________________________________________________________________________________________________ I was trying to use some different distance metrices -> [euclidian l1, euclidian l2, 1 - cosine similarity
…
