…
), activation='relu', padding='same')(encoded) x = UpSampling2D((2, 2))(x) x = Conv2D(32, (3, 3), activation='relu', padding='same')(x) x = UpSampling2D((2, 2))(x) decoded = Conv2D(1, (3, 3), activation='sigmoid', padding='same')(x) autoencoder = Model(input_img, decoded) autoencoder.compile(optimizer='adam', loss='binary_crossentropy') autoencoder.summary() This builds the following network: Model: "model_3" _________________________________________________________________ Layer (type) Output Shape Param # ================================================================= input_3 (InputLayer) (None, 28, 28, 1) 0 _________________________________________________________________ conv2d_11 (Conv2D) (None, 28, 28, 32) 320 _________________________________________________________________ max_pooling2d_5 (MaxPooling2 (None, 14, 14, 32) 0 _________________________________________________________________ conv2d_12 (Conv2D) (None, 14, 14, 32) 9248 _________________________________________________________________ max_pooling2d_6 (MaxPooling2 (None, 7, 7, 32) 0 _________________________________________________________________ conv2d_13 (Conv2D) (None, 7, 7, 32) 9248 _________________________________________________________________ up_sampling2d_5 (UpSampling2 (None, 14, 14, 32) 0 _________________________________________________________________ conv2d_14 (Conv2D) (None, 14, 14, 32) 9248 _________________________________________________________________ up_sampling2d_6 (UpSampling2 (None, 28, 28, 32) 0 _________________________________________________________________ conv2d_15 (Conv2D) (None, 28, 28, 1) 289 ================================================================= Total params: 28,353 Trainable params: 28,353 Non-trainable params: 0 So far, so good. I can train it with autoencoder.fit(x_train_noisy, x_train, epochs=10, batch_size=128, shuffle=True ) and it converges to a solution with a loss of approx. 0.099 (and roughly the same on the test set). But now I tried to pad my input images. I di
…
, padding='same')(x) x = UpSampling2D((2, 2))(x) decoded = Conv2D(1, (3, 3), activation='sigmoid', padding='same')(x) autoencoder_padded = Model(input_img_padded, decoded) autoencoder_padded.compile(optimizer='adam', loss='binary_crossentropy') autoencoder_padded.summary() As you can see, the network is essentially the same as before (same convolution layers, same total number of parameters): Model: "model_4" _________________________________________________________________ Layer (type) Output Shape Param # ================================================================= input_4 (InputLayer) (None, 32, 32, 1) 0 _________________________________________________________________ conv2d_16 (Conv2D) (None, 32, 32, 32) 320 _________________________________________________________________ max_pooling2d_7 (MaxPooling2 (None, 16, 16, 32) 0 _________________________________________________________________ conv2d_17 (Conv2D) (None, 16, 16, 32) 9248 _________________________________________________________________ max_pooling2d_8 (MaxPooling2 (None, 8, 8, 32) 0 _________________________________________________________________ conv2d_18 (Conv2D) (None, 8, 8, 32) 9248 _________________________________________________________________ up_sampling2d_7 (UpSampling2 (None, 16, 16, 32) 0 _________________________________________________________________ conv2d_19 (Conv2D) (None, 16, 16, 32) 9248 _________________________________________________________________ up_sampling2d_8 (UpSampling2 (None, 32, 32, 32) 0 _________________________________________________________________ conv2d_20 (Conv2D) (None, 32, 32, 1) 289 ================================================================= Total params: 28,353 Trainable params: 28,353 Non-trainable params: 0 _________________________________________________________________ However, when I train this network, using autoencoder_padded.fit(x_train_padded_noisy, x_train_padded, epochs=10, batch_size=128, shuffle=True ) it achieves a loss of about 0.075, almost 25% less t
…
