…
 need, but there isn't a pooling mechanism that just # gets us the sum of products. scale = self.pool_size[0] * self.pool_size[1] tf_scale = tf.constant(scale, dtype='float32') avg = tf.nn.pool(inputs, window_shape=self.pool_size, pooling_type='AVG', strides=self.strides, padding=self.padding) return self.activation(self.w * tf_scale * avg + self.b) Here's the output of model.summary() for comparison: Model: "LeNet-5" _________________________________________________________________ Layer (type) Output Shape Param # ================================================================= C1 (Conv2D) (None, 28, 28, 6) 156 S2 (Subsampling) (None, 14, 14, 6) 12 C3 (Conv2D) (None, 10, 10, 16) 2416 S4 (Subsampling) (None, 5, 5, 16) 32 flatten (Flatten) (None, 400) 0 C5 (Dense) (None, 120) 48120 F6 (Dense) (None, 84) 10164 Output (Dense) (None, 10) 850 ================================================================= Total params: 61,750 Trainable params: 61,750 Non-trainable params: 0 _________________________________________________________________
