…
ters=16, kernel_size=(5, 5), activation='tanh', padding='valid')) model.add(layers.AveragePooling2D(pool_size=(2, 2), strides=(2, 2), padding='valid')) model.add(layers.Flatten()) model.add(layers.Dense(units=120, activation='tanh')) model.add(layers.Dense(units=84, activation='tanh')) model.add(layers.Dense(units=10, activation = 'softmax')) Calling model.summary() on a model like this yields: Model: "sequential" _________________________________________________________________ Layer (type) Output Shape Param # ================================================================= conv2d (Conv2D) (None, 28, 28, 6) 156 _________________________________________________________________ average_pooling2d (AveragePo (None, 14, 14, 6) 0 _________________________________________________________________ conv2d_1 (Conv2D) (None, 10, 10, 16) 2416 _________________________________________________________________ average_pooling2d_1 (Average (None, 5, 5, 16) 0 _________________________________________________________________ flatten (Flatten) (None, 400) 0 _________________________________________________________________ dense (Dense) (None, 120) 48120 _________________________________________________________________ dense_1 (Dense) (None, 84) 10164 _________________________________________________________________ dense_2 (Dense) (None, 10) 850 ================================================================= Total params: 61,706 Trainable params: 61,706 Non-trainable params: 0 _________________________________________________________________ The pooling layers have no trainable parameters. Maybe those parameters aren't so important for performance, but I'm curious how to implement the original pooling layers in Tensorflow.
