…
.seed(seed) embedding_layer = Embedding(vocab_size, 300,weights=[embedding_matrix], input_length=max_length,trainable=True) sequence_input = Input(shape=(max_length,), dtype='int32') embedded_sequences = embedding_layer(sequence_input) x = Conv1D(24, 4,activation='relu')(embedded_sequences) x = LSTM(250,kernel_regularizer=regularizers.l1(0.01),activation='tanh')(x) x = Dropout(0.4)(x) Train & Validation loss: _________________________________________________________________ Layer (type) Output Shape Param # ================================================================= input_7 (InputLayer) (None, 25) 0 _________________________________________________________________ embedding_7 (Embedding) (None, 25, 300) 31500 _________________________________________________________________ conv1d_7 (Conv1D) (None, 22, 64) 76864 _________________________________________________________________ lstm_4 (LSTM) (None, 250) 315000 _________________________________________________________________ dropout_7 (Dropout) (None, 250) 0 _________________________________________________________________ dense_7 (Dense) (None, 5) 1255 ================================================================= Total params: 424,619 Trainable params: 424,619 Non-trainable params:0 _________________________________________________________________ Train on 123 samples, validate on 31 samples Epoch 1/35 123/123 > [==============================] - 1s 8ms/step - loss: 22.8336 - acc: > 0.2439 - val_loss: 18.5322 - val_acc: 0.3871 Epoch 2/35 12
…
