…
# Create model2 inp2 = Input((7,)) d2 = Dense(70)(inp2) out2 = Dense(10)(d2) model2 = Model(inp2, out2) # Weighed sum of the two models' outputs with a = 0.1 out = WeightedSum(0.1)([model1.output, model2.output]) # Create the merged model model = Model(inputs=[inp1, inp2], outputs=[out]) Let's check the summary: >>> model.summary() __________________________________________________________________________________________________ Layer (type) Output Shape Param # Connected to ================================================================================================== input_5 (InputLayer) (None, 5) 0 __________________________________________________________________________________________________ input_6 (InputLayer) (None, 7) 0 __________________________________________________________________________________________________ dense_9 (Dense) (None, 100) 600 input_5[0][0] __________________________________________________________________________________________________ dense_11 (Dense) (None, 70) 560 input_6[0][0] __________________________________________________________________________________________________ dense_10 (Dense) (None, 10) 1010 dense_9[0][0] __________________________________________________________________________________________________ dense_12 (Dense) (None, 10) 710 dense_11[0][0] __________________________________________________________________________________________________ weighted_sum_10 (WeightedSum) (None, 10) 0 dense_10[0][0] dense_12[0][0] ================================================================================================== Total params: 2,880 Trainable params: 2,880 Non-trainable params: 0 __________________________________________________________________________________________________ Let's see if it works: import numpy as np a = np.random.random(size=(32, 5)) # input for model1 (batch 
…
