…
ep - loss: 0.1261 - accuracy: 0.9497 - val_loss: 4.3830 - val_accuracy: 0.5005 Epoch 10/10 914/914 [==============================] - 272s 297ms/step - loss: 0.1142 - accuracy: 0.9548 - val_loss: 1.6054 - val_accuracy: 0.5009 Here's model.evaluate(): model.evaluate(X_train,Y_train) 914/914 [==============================] - 35s 37ms/step - loss: 1.7588 - accuracy: 0.5009 Here's model.summary(): Model: "sequential" _________________________________________________________________ Layer (type) Output Shape Param # ================================================================= conv1d (Conv1D) (None, 4096, 16) 992 _________________________________________________________________ batch_normalization (BatchNo (None, 4096, 16) 64 _________________________________________________________________ activation (Activation) (None, 4096, 16) 0 _________________________________________________________________ max_pooling1d (MaxPooling1D) (None, 2048, 16) 0 _________________________________________________________________ conv1d_1 (Conv1D) (None, 2048, 32) 1568 _________________________________________________________________ batch_normalization_1 (Batch (None, 2048, 32) 128 _________________________________________________________________ activation_1 (Activation) (None, 2048, 32) 0 _________________________________________________________________ max_pooling1d_1 (MaxPooling1 (None, 1024, 32) 0 _________________________________________________________________ conv1d_2 (Conv1D) (None, 1024, 64) 6208 _________________________________________________________________ batch_normalization_2 (Batch (None, 1024, 64) 256 _________________________________________________________________ activation_2 (Activation) (None, 1024, 64) 0 _________________________________________________________________ max_pooling1d_2 (MaxPooling1 (None, 512, 64) 0 _________________________________________________________________ conv1d_3 (Conv1D) (None, 512, 64) 12352 _________________________________________________________________ batch_normalization_3 (Batch (None, 512, 64) 256 _________________________________________________________________ activation_3 (Activation) (None, 512, 64) 0 _________________________________________________________________ max_pooling1d_3 (MaxPooling1 (None, 256, 64) 0 _________________________________________________________________ conv1d_4 (Conv1D) (None, 256, 64) 12352 _________________________________________________________________ batch_normalization_4 (Batch (None, 256, 64) 256 _________________________________________________________________ activation_4 (Activation) (None, 256, 64) 0 _________________________________________________________________ flatten (Flatten) (None, 16384) 0 _________________________________________________________________ dropout (Dropout) (None, 16384) 0 _________________________________________________________________ dense (Dense) (None, 200) 3277000 _________________________________________________________________ activation_5 (Activation) (None, 200) 0 _________________________________________________________________ dense_1 (Dense) (None, 2) 402 _________________________________________________________________ activation_6 (Activation) (None, 2) 0 ================================================================= Total params: 3,311,834 Trainable params: 3,311,354 Non-trainable params: 480 _________________________________________________________________ Here are the first 5 rows of X_train and Y_train: [[ 3.602187e-04] [ 8.075248e-04] [ 4.319834e-04] ... [ 3.011377e-05] [-1.693150e-04] [-8.542318e-05]] [0. 1.] [[ 2.884359e-04] [-6.340756e-
…
