…
I am building a recommender for an online shop and I have categorical inputs that belong to one of the following categories: user current session features (e.g. current_product_brand , current_product_id ) user previous activity, i.e. latest 10 sessions (e.g previous_product_id , previous_product_brand ) user previous activity 2D features, i.e. (e.g. product_semantics_embedding , product_tags_embedding - assume that each product has 20 tags/semantics) Indicative part of the summary of the model: _________________________________________________________________________________________________ Layer (type) Output Shape Param # Connected to ================================================================================================== current_product_brand (InputLaye (None, 1) 0 __________________________________________________________________________________________________ current_product_id (InputLayer) (None, 1) 0 __________________________________________________________________________________________________ previous_product_id (InputLayer) (None, 10) 0 __________________________________________________________________________________________________ previous_product_brand (InputLayer)(None, 10) 0 __________________________________________________________________________________________________ previous_product_semantics (InputL (None, 200) 0 __________________________________________________________________________________________________ previous_product_tags (InputLayer) (None, 200) 0 __________________________________________________________________________________________________ product_brand_embedding (Embeddi (None, 10, 60) 60 current_product_brand[0][0] previous_product_brand[0][0] __________________________________________________________________________________________________ product_id_embedding (Embedding) (None, 10, 60) 98820 current_product_id[0][0] previous_product_id[0][0] __________________________________________________________________________________________________ product_semantics_embedding (Embed (None, 200, 60) 104880 previous_product_semantics[0][0] __________________________________________________________________________________________________ product_tags_embedding (Embedding) (None, 200, 60) 2760 previous_product_tags[0][0] __________________________________________________________________________________________________ Features like product brand that appear both in current and previous sessions are embedded in the same space. Note that the output of all embeddings is constant (in this case 60). Now, I want to combine all the embeddings into a single tensor in order to feed them into an
…
