…
odel.add(MaxPooling2D(pool_size=(1, 1))) model.add(Dropout(0.2)) model.add(Flatten()) model.add(Dense(8, activation= 'relu' )) #model.add(Dense(25, activation= 'relu' )) model.add(Dense(1, activation= 'softmax' )) model.compile(loss= 'binary_crossentropy' , optimizer= 'adam' , metrics=[ 'accuracy' ]) print ('model.input_shape ', model.input_shape) model.summary() Result : model.input_shape (None, 1, 500, 559932) _________________________________________________________________ Layer (type) Output Shape Param # ================================================================= conv2d_1 (Conv2D) (None, 15, 496, 559928) 390 _________________________________________________________________ max_pooling2d_1 (MaxPooling2 (None, 15, 496, 559928) 0 _________________________________________________________________ conv2d_2 (Conv2D) (None, 10, 494, 559926) 1360 _________________________________________________________________ max_pooling2d_2 (MaxPooling2 (None, 10, 494, 559926) 0 _________________________________________________________________ dropout_1 (Dropout) (None, 10, 494, 559926) 0 _________________________________________________________________ flatten_1 (Flatten) (None, 2766034440) 0 _________________________________________________________________ dense_1 (Dense) (None, 8) 2212827552 _________________________________________________________________ dense_2 (Dense) (None, 1) 9 ================================================================= Total params: 22,128,277,287 Trainable params: 22,128,277,287 Non-trainable params: 0
