…
I'm learning about variational autoencoders and I've implemented a simple example in keras, model summary below. I've copied the loss function from one of Francois Chollet's blog posts and I'm getting really really negative losses. What am I missing here? Model: "model_1" __________________________________________________________________________________________________ Layer (type) Output Shape Param # Connected to ================================================================================================== input_1 (InputLayer) [(None, 224)] 0 __________________________________________________________________________________________________ encoding_flatten (Flatten) (None, 224) 0 input_1[0][0] __________________________________________________________________________________________________ encoding_layer_2 (Dense) (None, 256) 57600 encoding_flatten[0][0] __________________________________________________________________________________________________ encoding_layer_3 (Dense) (None, 128) 32896 encoding_layer_2[0][0] __________________________________________________________________________________________________ encoding_layer_4 (Dense) (None, 64) 8256 encoding_layer_3[0][0] __________________________________________________________________________________________________ encoding_layer_5 (Dense) (None, 32) 2080 encoding_layer_4[0][0] __________________________________________________________________________________________________ encoding_layer_6 (Dense) (None, 16) 528 encoding_layer_5[0][0] __________________________________________________________________________________________________ encoder_mean (Dense) (None, 16) 272 encoding_layer_6[0][0] __________________________________________________________________________________________________ encoder_sigma (Dense) (None, 16) 272 encoding_layer_6[0][0] __________________________________________________________________________________________________ lambda (Lambda) (None, 16) 0 encoder_mean[0][0] encoder_sigma[0][0] __________________________________________________________________________________________________ decoder_layer_1 (Dense) (None, 16) 272 lambda[0][0] __________________________________________________________________________________________________ decoder_layer_2 (Dense) (None, 32) 544 decoder_layer_1[0][0] __________________________________________________________________________________________________ decoder_layer_3 (Dense) (None, 64) 2112 decoder_layer_2[0][0] __________________________________________________________________________________________________ decoder_layer_4 (Dense) (None, 128) 8320 decoder_layer_3[0][0] __________________________________________________________________________________________________ decoder_layer_5 (Dense) (None, 256) 33024 decoder_layer_4[0][0] __________________________________________________________________________________________________ decoder_mean (Dense) (None, 224) 57568 decoder_layer_5[0][0] ================================================================================================== Total params: 203,744 Trainable params: 203,744 Non-trainable params: 0 __________________________________________________________________________________________________ Train on 3974 samples, validate on 994 samples Epoch 1/10 3974/3974 [==============================] - 3s 6
…
