…
45 dolphin-2.2.1_new-2023-12-23-06-34 2000 0.0169 0.0011213048128411174 dolphin-2.2.1_new-2023-12-23-19-08 2250 0.0027 0.00005872833207831718 dolphin-2.2.1_new-2023-12-24-01-06 2500 0.0009 0.000027619591492111795 dolphin-2.2.1_new-2023-12-24-10-11 2750 0.0002 0.000020941797629348 dolphin-2.2.1_new-2023-12-24-16-02 3000 0.0001 0.000017155833120341413 dolphin-2.2.1_new-2023-12-24-21-51 3250 0.0001 0.00001347742090729298 dolphin-2.2.1_new-2023-12-25-07-43 3500 0 0.000011896418072865345 PeftModelForCausalLM( (base_model): LoraModel( (model): MistralForCausalLM( (model): MistralModel( (embed_tokens): Embedding(32002, 4096) (layers): ModuleList( (0-31): 32 x MistralDecoderLayer( (self_attn): MistralSdpaAttention( (q_proj): lora.Linear4bit( (base_layer): Linear4bit(in_features=4096, out_features=4096, bias=False) (lora_dropout): ModuleDict( (default): Dropout(p=0.05, inplace=False) ) (lora_A): ModuleDict( (default): Linear(in_features=4096, out_features=8, bias=False) ) (lora_B): ModuleDict( (default): Linear(in_features=8, out_features=4096, bias=False) ) (lora_embedding_A): ParameterDict() (lora_embedding_B): ParameterDict() ) (k_proj): lora.Linear4bit( (base_layer): Linear4bit(in_features=4096, out_features=1024, bias=False) (lora_dropout): ModuleDict( (default): Dropout(p=0.05, inplace=False) ) (lora_A): ModuleDict( (default): Linear(in_features=4096, out_features=8, bias=False) ) (lora_B): ModuleDict( (default): Linear(in_features=8, out_features=1024, bias=False) ) (lora_embedding_A): ParameterDict() (lora_embedding_B): ParameterDict() ) (v_proj): lora.Linear4bit( (base_layer): Linear4bit(in_features=4096, out_features=1024, bias=False) (lora_dropout): ModuleDict( (default): Dropout(p=0.05, inplace=False) ) (lora_A): ModuleDict( (default): Linear(in_features=4096, out_features=8, bias=False) ) (lora_B): ModuleDict( (default): Linear(in_features=8, out_features=1024, bias=False) ) (lora_embedding_A): ParameterDict() (lora_embedding_B): ParameterDict() ) (o_proj): lora.Linear4bit( (base_layer): Linear4bit(in_features=4096, out_features=4096, bias=False) (lora_dropout): ModuleDict( (default): Dropout(p=0.05, inplace=False) ) (lora_A): ModuleDict( (default): Linear(in_features=4096, out_features=8, bias=False) ) (lora_B): ModuleDict( (default): Linear(in_features=8, out_features=4096, bias=False) ) (lora_embedding_A): ParameterDict() (lora_embedding_B): ParameterDict() ) (rotary_emb): MistralRotaryEmbedding() ) (mlp): MistralMLP( (gate_proj): lora.Linear4bit( (base_layer): Linear4bit(in_features=4096, out_features=14336, bias=False) (lora_dropout): ModuleDict( (default): Dropout(p=0.05, inplace=False) ) (lora_A): ModuleDict( (default): Linear(in_features=4096, out_features=8, bias=False) ) (lora_B): ModuleDict( (default): Linear(in_features=8, out_features=14336, bias=False) ) (lora_embedding_A): ParameterDict() (lora_embedding_B): ParameterDict() ) (up_proj): lora.Linear4bit( (base_layer): Linear4bit(in_features=4096, out_features=14336, bias=False) (lora_dropout): ModuleDict( (default): Dropout(p=0.05, inplace=False) ) (lora_A): ModuleDict( (default): Linear(in_features=4096, out_features=8, bias=False) ) (lora_B): ModuleDict( (default): Linear(in_features=8, out_features=14336, bias=False) ) (lora_embedding_A): ParameterDict() (lora_embedding_B): ParameterDict() ) (down_proj): lora.Linear4bit( (base_layer): Linear4bit(in_features=14336, out_features=4096, bias=False) (lora_dropout): ModuleDict( (default): Dropout(p=0.05, inplace=False) ) (lora_A): ModuleDict( (default): Linear(in_features=14336, out_features=8, bias=False) ) (lora_B): ModuleDict( (default): Linear(in_features=8, out_features=4096, bias=False) ) (lora_embedding_A): ParameterDict() (lora_embedding_B): ParameterDict() ) (act_fn): SiLU() ) (input_layernorm): MistralRMSNorm() (post_attention_layernorm): MistralRMSNorm() ) ) (norm): MistralRMSNorm() ) (lm_head): lora.Linear( (base_layer): Linear(in_features=4096, out_features=32002, bias=False) (lora_dropout): ModuleDict( (default): Dropout(p=0.05, inplace=False) ) (lora_A): ModuleDict( (default): Linear(in_features=4096, out_features=8, bias=False) ) (lora_B): ModuleDict( (default): Linear(in_features=8, out_features=32002, bias=False) ) (lora_embedding_A): ParameterDict() (lora_embedding_B): ParameterDict() ) ) ) )
