[site]: datascience
[post_id]: 61832
[parent_id]: 
[tags]: 
Validation generator in Autoencoder returning NaN

I am trying to build a fairly simple autoencoder using Keras on the OpenImages dataset. Here is the architecture of the ae: Layer (type) Output Shape Param # ================================================================= conv3d_1 (SeparableConv2D) (None, 64, 64, 64) 283 _________________________________________________________________ max_pool_1 (MaxPooling2D) (None, 32, 32, 64) 0 _________________________________________________________________ batch_norm_1 (BatchNormaliza (None, 32, 32, 64) 256 _________________________________________________________________ sep_conv2d_2 (SeparableConv2 (None, 32, 32, 32) 2656 _________________________________________________________________ max_pool_2 (MaxPooling2D) (None, 16, 16, 32) 0 _________________________________________________________________ batch_norm_2 (BatchNormaliza (None, 16, 16, 32) 128 _________________________________________________________________ sep_conv2d_3 (SeparableConv2 (None, 16, 16, 32) 1344 _________________________________________________________________ max_pool_3 (MaxPooling2D) (None, 8, 8, 32) 0 _________________________________________________________________ batch_norm_3 (BatchNormaliza (None, 8, 8, 32) 128 _________________________________________________________________ flatten (Flatten) (None, 2048) 0 _________________________________________________________________ bottleneck (Dense) (None, 64) 131136 _________________________________________________________________ reshape (Reshape) (None, 8, 8, 1) 0 _________________________________________________________________ conv_2d_transpose_1 (Conv2DT (None, 16, 16, 32) 320 _________________________________________________________________ batch_norm_4 (BatchNormaliza (None, 16, 16, 32) 128 _________________________________________________________________ conv_2d_transpose_2 (Conv2DT (None, 32, 32, 32) 9248 _________________________________________________________________ batch_norm_5 (BatchNormaliza (None, 32, 32, 32) 128 _________________________________________________________________ conv_2d_transpose_3 (Conv2DT (None, 64, 64, 64) 18496 _________________________________________________________________ batch_norm_6 (BatchNormaliza (None, 64, 64, 64) 256 _________________________________________________________________ sep_conv2d_4 (SeparableConv2 (None, 64, 64, 3) 771 ================================================================= Total params: 165,278 Trainable params: 164,766 Non-trainable params: 512 I am then defining generators that flow from a directory where I have downloaded the images: train_data_dir = 'open_images/train/' validation_data_dir = 'open_images/validation/' batch_size = 128 train_datagen = ImageDataGenerator(rescale=1./255) test_datagen
…
