…
el.add(Dropout(dr)) model.add(Flatten()) model.add(Dense(256, activation='relu', kernel_initializer='he_normal', name="dense1")) model.add(Dropout(dr)) model.add(Dense( len(classes), kernel_initializer='he_normal', name="dense2" )) model.add(Activation('softmax')) model.add(Reshape([len(classes)])) model.compile(loss='categorical_crossentropy', optimizer='adam') model.summary() and I got the following summary: _________________________________________________________________ Layer (type) Output Shape Param # ================================================================= reshape_1 (Reshape) (None, 1, 2, 128) 0 _________________________________________________________________ zero_padding2d_1 (ZeroPaddin (None, 1, 6, 128) 0 _________________________________________________________________ conv1 (Conv2D) (None, 256, 6, 126) 1024 _________________________________________________________________ dropout_1 (Dropout) (None, 256, 6, 126) 0 _________________________________________________________________ zero_padding2d_2 (ZeroPaddin (None, 256, 10, 126) 0 _________________________________________________________________ conv2 (Conv2D) (None, 80, 9, 124) 122960 _________________________________________________________________ dropout_2 (Dropout) (None, 80, 9, 124) 0 _________________________________________________________________ flatten_1 (Flatten) (None, 89280) 0 _________________________________________________________________ dense1 (Dense) (None, 256) 22855936 _________________________________________________________________ dropout_3 (Dropout) (None, 256) 0 _________________________________________________________________ dense2 (Dense) (None, 8) 2056 _________________________________________________________________ activation_1 (Activation) (None, 8) 0 _________________________________________________________________ reshape_2 (Reshape) (None, 8) 0 ================================================================= Total params: 22,981,976 Trainable params: 22,981,976 Non-trainable params: 0 The model works fine. But, I want to understand something regarding conv1 layer. Why the width value has been reduced from 128 to 126? I am really confused about that shouldn't it be the same value as the previous layer? Also, the same thing for the conv2 layer too where the height and width have decreased from (10,126) to (9,124). Could someone explain me why?
