…
xceeds 10% of free system memory. 2022-07-01 12:34:57.592132: W tensorflow/core/framework/cpu_allocator_impl.cc:82] Allocation of 3076915200 exceeds 10% of free system memory. 2022-07-01 12:35:06.909754: W tensorflow/core/framework/cpu_allocator_impl.cc:82] Allocation of 3076915200 exceeds 10% of free system memory. Siamesisches Netzwerk erstellen... Model: "vgg16" _________________________________________________________________ Layer (type) Output Shape Param # ================================================================= input_3 (InputLayer) [(None, 64, 626, 3)] 0 block1_conv1 (Conv2D) (None, 64, 626, 64) 1792 block1_conv2 (Conv2D) (None, 64, 626, 64) 36928 block1_pool (MaxPooling2D) (None, 32, 313, 64) 0 block2_conv1 (Conv2D) (None, 32, 313, 128) 73856 block2_conv2 (Conv2D) (None, 32, 313, 128) 147584 block2_pool (MaxPooling2D) (None, 16, 156, 128) 0 block3_conv1 (Conv2D) (None, 16, 156, 256) 295168 block3_conv2 (Conv2D) (None, 16, 156, 256) 590080 block3_conv3 (Conv2D) (None, 16, 156, 256) 590080 block3_pool (MaxPooling2D) (None, 8, 78, 256) 0 block4_conv1 (Conv2D) (None, 8, 78, 512) 1180160 block4_conv2 (Conv2D) (None, 8, 78, 512) 2359808 block4_conv3 (Conv2D) (None, 8, 78, 512) 2359808 block4_pool (MaxPooling2D) (None, 4, 39, 512) 0 block5_conv1 (Conv2D) (None, 4, 39, 512) 2359808 block5_conv2 (Conv2D) (None, 4, 39, 512) 2359808 block5_conv3 (Conv2D) (None, 4, 39, 512) 2359808 block5_pool (MaxPooling2D) (None, 2, 19, 512) 0 ================================================================= Total params: 14,714,688 Trainable params: 14,714,688 Non-trainable params: 0 _________________________________________________________________ None 2022-07-01 12:35:22.586993: W tensorflow/core/framework/cpu_allocator_impl.cc:82] Allocation of 318767104 exceeds 10% of free system memory. Model: "model" __________________________________________________________________________________________________ Layer (type) Output Shape Param # Connected to ================================================================================================== input_1 (InputLayer) [(None, 64, 626, 3) 0 [] ] input_2 (InputLayer) [(None, 64, 626, 3) 0 [] ] vgg16 (Functional) (None, 2, 19, 512) 14714688 ['input_1[0][0]', 'input_2[0][0]'] flatten (Flatten) (None, 19456) 0 ['vgg16[0][0]', 'vgg16[1][0]'] dense (Dense) (None, 4096) 79695872 ['flatten[0][0]', 'flatten[1][0]'] dense_1 (Dense) (None, 4096) 16781312 ['dense[0][0]', 'dense[1][0]'] dense_2 (Dense) (None, 512) 2097664 ['dense_1[0][0]', 'dense_1[1][0]'] lambda (Lambda) (None, 1) 0 ['dense_2[0][0]', 'dense_2[1][0]'] dense_3 (Dense) (None, 1) 2 ['lambda[0][0]'] ================================================================================================== Total params: 113,289,538 Trainable params: 113,289,538 Non-trainable params: 0 __________________________________________________________________________________________________ None Siamesisches Netzwerk traineren... Siamesisches Model trainieren. Epoch 1/10 1/160 [...............
…
