…
4, kernel_size=2, activation='relu', input_shape=(95751, 4))) modelcnn.add(MaxPooling1D(pool_size=2)) modelcnn.add(Flatten()) modelcnn.add(Dense(50, activation='relu')) modelcnn.add(Dense(1)) modelcnn.compile(optimizer='adam', loss='mse') then I fit the model modelcnn.fit(data2cnn, y, epochs=1000, verbose=0) and I get this mistake ValueError: Input arrays should have the same number of samples as target arrays. Found 1 input samples and 95751 target samples. modelcnn.summary() Layer (type) Output Shape Param # ================================================================= conv1d_2 (Conv1D) (None, 95750, 64) 576 _________________________________________________________________ max_pooling1d_2 (MaxPooling1 (None, 47875, 64) 0 _________________________________________________________________ flatten_2 (Flatten) (None, 3064000) 0 _________________________________________________________________ dense_3 (Dense) (None, 50) 153200050 _________________________________________________________________ dense_4 (Dense) (None, 1) 51 ================================================================= Total params: 153,200,677 Trainable params: 153,200,677 Non-trainable params: 0 _ I also try with different solution but got different type of mistakes I did data1cnn = data1.values.reshape(95751, 4,1) data1cnn.shape (95751, 4, 1) but i got this other mistake ValueError: Error when checking input: expected conv1d_2_input to have shape (95751, 4) but got array with shape (4, 1) modelcnn.summary() Layer (type) Output Shape Param # ================================================================= conv1d_2 (Conv1D) (None, 95750, 64) 576 _________________________________________________________________ max_pooling1d_2 (MaxPooling1 (None, 47875, 64) 0 _________________________________________________________________ flatten_2 (Flatten) (None, 3064000) 0 _________________________________________________________________ dense_3 (Dense) (None, 50) 153200050 _________________________________________________________________ dense_4 (Dense) (None, 1) 51 ================================================================= Total params: 153,200,677 Trainable params: 153,200,677 Non-trainable params: 0 I am completely stuck and I have read all the question and answers that are here . With no success
