…
ig['NUM_CLASSES']) def forward(self, inputs): b, f, c, h, w = inputs.shape inputs = inputs.reshape(b * f, c, h, w) embeddings = self.backbone(inputs) embeddings = embeddings.reshape(b, f, self.num_features) sequence_outputs, h_n = self.rnn(embeddings) features = sequence_outputs[:, -1] outputs = self.dropout(features) outputs = self.head(outputs) return outputs ========================================================================================== Layer (type:depth-idx) Output Shape Param # ========================================================================================== RSNAModel [4, 9] -- ├─Beit: 1-1 [64, 1408] 363,264 │ └─PatchEmbed: 2-1 [64, 256, 1408] -- │ │ └─Conv2d: 3-1 [64, 1408, 16, 16] (829,312) │ │ └─Identity: 3-2 [64, 256, 1408] -- │ └─Dropout: 2-2 [64, 257, 1408] -- │ └─ModuleList: 2-3 -- -- │ │ └─Block: 3-3 [64, 257, 1408] ............ │ │ └─Block: 3-42 [64, 257, 1408] (25,248,768) │ └─Identity: 2-4 [64, 257, 1408] -- │ └─LayerNorm: 2-5 [64, 1408] (2,816) │ └─Identity: 2-6 [64, 1408] -- ├─LSTM: 1-2 [4, 16, 1408] 11,906,048 ├─Dropout: 1-3 [4, 1408] -- ├─Linear: 1-4 [4, 9] 12,681 ========================================================================================== Total params: 1,023,064,841 Trainable params: 11,918,729 Non-trainable params: 1,011,146,112 Total mult-adds (G): 63.75 ========================================================================================== Input size (MB): 38.54 Forward/backward pass size (MB): 62167.32 Params size (MB): 3138.77 Estimated Total Size (MB): 65344.63 ========================================================================================== What should i do to improve results? What other tricks can be applied to improve accuracy? I believe that a good vision transformer as backbone can improve accuracy.
