[site]: datascience
[post_id]: 39266
[parent_id]: 
[tags]: 
How to analyze CNN model summary and improve it?

I am using a CNN (adapted from a few links on the net) for an image classification task. There are about 8000 images of size 128x128 each. They are of 13 different classes. Following is output of model.summary() ): _________________________________________________________________ Layer (type) Output Shape Param # ================================================================= batch_normalization_1 (Batch (None, 128, 128, 3) 12 _________________________________________________________________ conv2d_1 (Conv2D) (None, 128, 128, 32) 896 _________________________________________________________________ max_pooling2d_1 (MaxPooling2 (None, 64, 64, 32) 0 _________________________________________________________________ batch_normalization_2 (Batch (None, 64, 64, 32) 128 _________________________________________________________________ conv2d_2 (Conv2D) (None, 64, 64, 64) 18496 _________________________________________________________________ max_pooling2d_2 (MaxPooling2 (None, 32, 32, 64) 0 _________________________________________________________________ batch_normalization_3 (Batch (None, 32, 32, 64) 256 _________________________________________________________________ conv2d_3 (Conv2D) (None, 32, 32, 128) 73856 _________________________________________________________________ max_pooling2d_3 (MaxPooling2 (None, 16, 16, 128) 0 _________________________________________________________________ batch_normalization_4 (Batch (None, 16, 16, 128) 512 _________________________________________________________________ conv2d_4 (Conv2D) (None, 16, 16, 64) 73792 _________________________________________________________________ global_average_pooling2d_1 ( (None, 64) 0 _________________________________________________________________ dense_1 (Dense) (None, 13) 845 ================================================================= Total params: 168,793 Trainable params: 168,339 Non-trainable params: 454 How does one analyze this model summary and how can this model be improved?
