…
g later G_losses.append(errG.item()) D_losses.append(errD.item()) # Check how the generator is doing by saving G's output on fixed_noise if (iters % 500 == 0) or ((epoch == num_epochs-1) and (i == len(dataloader)-1)): with torch.no_grad(): fake = netG(fixed_noise).detach().cpu() #img_list.append(vutils.make_grid(fake, padding=2, normalize=True)) iters += 1 And this is the output when I attempt to run that code: runfile('C:/Users/user/Desktop/Class/CS 898AN/2018 IPS Dataset/test.py', wdir='C:/Users/user/Desktop/Class/CS 898AN/2018 IPS Dataset') Random Seed: 999 Generator( (main): Sequential( (0): ConvTranspose2d(100, 8, kernel_size=(4, 4), stride=(1, 1), bias=False) (1): BatchNorm2d(8, eps=1e-05, momentum=0.1, affine=True, track_running_stats=True) (2): ReLU(inplace=True) (3): ConvTranspose2d(8, 4, kernel_size=(4, 4), stride=(2, 2), padding=(1, 1), bias=False) (4): BatchNorm2d(4, eps=1e-05, momentum=0.1, affine=True, track_running_stats=True) (5): ReLU(inplace=True) (6): ConvTranspose2d(4, 2, kernel_size=(4, 4), stride=(2, 2), padding=(1, 1), bias=False) (7): BatchNorm2d(2, eps=1e-05, momentum=0.1, affine=True, track_running_stats=True) (8): ReLU(inplace=True) (9): ConvTranspose2d(2, 1, kernel_size=(4, 4), stride=(2, 2), padding=(1, 1), bias=False) (10): BatchNorm2d(1, eps=1e-05, momentum=0.1, affine=True, track_running_stats=True) (11): ReLU(inplace=True) (12): ConvTranspose2d(1, 78, kernel_size=(4, 4), stride=(2, 2), padding=(1, 1), bias=False) (13): Tanh() ) ) Discriminator( (main): Sequential( (0): Conv1d(1, 78, kernel_size=(1,), stride=(1,), bias=False) (1): LeakyReLU(negative_slope=0.2, inplace=True) (2): Conv1d(78, 1, kernel_size=(1,), stride=(1,), bias=False) (3): BatchNorm2d(2, eps=1e-05, momentum=0.1, affine=True, track_running_stats=True) (4): LeakyReLU(negative_slope=0.2, inplace=True) (5): Conv2d(8, 1, kernel_size=(4, 4), stride=(1, 1), bias=False) (6): Sigmoid() ) ) Starting Training Loop... Training with all-real batch. Formatting all-real batch. Forwarding pass real batch through D. Traceback (most recent call last): File " ", line 1, in runfile('C:/Users/user/Desktop/Class/CS 898AN/2018 IPS Dataset/test.py', wdir='C:/Users/user/Desktop/Class/CS 898AN/2018 IPS Dataset') File "C:\Users\u
…
