…
(max_pool) fc1 = Dense(256, name="fc1", activation="relu")(out_flatten) dr_2 = Dropout(DROPOUT_RATE)(fc1) fc2 = Dense(128, name="fc2", activation="relu")(dr_2) output = Dense(11, name="output", activation="softmax")(fc2) model = keras.Model(inputs=[iq_in], outputs=[output]) model.compile(loss='categorical_crossentropy', optimizer='adam') model.summary() With the following output: Layer (type) Output Shape Param # ================================================================= IQ (InputLayer) [(None, 128, 2)] 0 _________________________________________________________________ conv1d (Conv1D) (None, 128, 16) 240 _________________________________________________________________ dropout (Dropout) (None, 128, 16) 0 _________________________________________________________________ conv1d_1 (Conv1D) (None, 128, 16) 1296 _________________________________________________________________ max_pooling1d (MaxPooling1D) (None, 64, 16) 0 _________________________________________________________________ flatten (Flatten) (None, 1024) 0 _________________________________________________________________ fc1 (Dense) (None, 256) 262400 _________________________________________________________________ dropout_1 (Dropout) (None, 256) 0 _________________________________________________________________ fc2 (Dense) (None, 128) 32896 _________________________________________________________________ output (Dense) (None, 11) 1419 ================================================================= Total params: 298,251 Trainable params: 298,251 Non-trainable params: 0 _________________________________________________________________
