…
Baseline Reg), the validation loss does not go up so much, which seems to resolve the overfitting issue, but the accuracy is very sporadic and is on average worse than the Baseline model. The question is the following: Is my intuition correct in that both model's results is showing overfitting and should I continue my effort to reduce this effect? Thanks in advance! Model Architectures are below: Model: "baseline" _________________________________________________________________ Layer (type) Output Shape Param # ================================================================= dense_6 (Dense) (884, 800) 603200 _________________________________________________________________ dense_7 (Dense) (884, 800) 640800 _________________________________________________________________ dense_8 (Dense) (884, 4) 3204 ================================================================= Total params: 1,247,204 Trainable params: 1,247,204 Non-trainable params: 0 _________________________________________________________________ Model: "baseline_reg" _________________________________________________________________ Layer (type) Output Shape Param # ================================================================= dense_9 (Dense) (884, 800) 603200 _________________________________________________________________ dropout (Dropout) (884, 800) 0 _________________________________________________________________ dense_10 (Dense) (884, 800) 640800 _________________________________________________________________ dense_11 (Dense) (884, 4) 3204 ================================================================= Total params: 1,247,204 Trainable params: 1,247,204 Non-trainable params: 0 _________________________________________________________________
