…
BatchNormalization()(dec) dec = Conv1D(filters=32, kernel_size=2, padding='same', activation='relu')(dec) dec = UpSampling1D(2)(dec) dec = BatchNormalization()(dec) dec = Conv1D(filters=1, kernel_size=2, padding='same', activation='sigmoid')(dec) mod = Model(input_layer, dec) mod.compile(optimizer='adam', loss='mean_squared_error') mod.summary() And this is the summary: Layer (type) Output Shape Param # ================================================================= input_5 (InputLayer) [(None, 25088, 1)] 0 _________________________________________________________________ conv1d_22 (Conv1D) (None, 25088, 32) 96 _________________________________________________________________ max_pooling1d_9 (MaxPooling1 (None, 12544, 32) 0 _________________________________________________________________ batch_normalization_18 (Batc (None, 12544, 32) 128 _________________________________________________________________ conv1d_23 (Conv1D) (None, 12544, 16) 1040 _________________________________________________________________ max_pooling1d_10 (MaxPooling (None, 6272, 16) 0 _________________________________________________________________ batch_normalization_19 (Batc (None, 6272, 16) 64 _________________________________________________________________ conv1d_24 (Conv1D) (None, 6272, 8) 264 _________________________________________________________________ max_pooling1d_11 (MaxPooling (None, 3136, 8) 0 _________________________________________________________________ batch_normalization_20 (Batc (None, 3136, 8) 32 _________________________________________________________________ conv1d_25 (Conv1D) (None, 3136, 8) 136 _________________________________________________________________ up_sampling1d_9 (UpSampling1 (None, 6272, 8) 0 _________________________________________________________________ conv1d_26 (Conv1D) (None, 6272, 16) 272 _________________________________________________________________ up_sampling1d_10 (UpSampling (None, 12544, 16) 0 _________________________________________________________________ conv1d_27 (Conv1D) (None, 12544, 32) 1056 _________________________________________________________________ up_sampling1d_11 (UpSampling (None, 25088, 32) 0 _________________________________________________________________ batch_normalization_23 (Batc (None, 25088, 32) 128 _________________________________________________________________ conv1d_28 (Conv1D) (None, 25088, 1) 65 ================================================================= Total params: 3,281 Trainable params: 3,105 Non-trainable params: 176 My 'data' matrix is a matrix 24 x 25088. I first normalize the values, dividing each row array (so each sample) by the maximum value of that sample's features, in order to have numbers in the [0, 1] range. Then I launch the fitting of the model: for i in range(da
…
