…
o separate into a test and training set. My model is defined as follows: cnn_model = tf.keras.Sequential([ Conv2D(32, (5,5), padding = 'same', activation = 'relu', input_shape =(input_shape)), Conv2D(64, (3,3), padding = 'same', activation = 'relu', input_shape =(input_shape)), MaxPooling2D(2,2), Flatten(), Dense(64, activation = 'relu'), Dense(1, activation = "sigmoid"), ]) cnn_model.summary() Model: "sequential" _________________________________________________________________ Layer (type) Output Shape Param # ================================================================= conv2d (Conv2D) (None, 224, 224, 32) 2432 _________________________________________________________________ conv2d_1 (Conv2D) (None, 224, 224, 64) 18496 _________________________________________________________________ max_pooling2d (MaxPooling2D) (None, 112, 112, 64) 0 _________________________________________________________________ flatten (Flatten) (None, 802816) 0 _________________________________________________________________ dense (Dense) (None, 64) 51380288 _________________________________________________________________ dense_1 (Dense) (None, 1) 65 ================================================================= Total params: 51,401,281 Trainable params: 51,401,281 Non-trainable params: 0 Now I am having a perfect fit with my validation and test datasets according to my accuracy and loss graphs. Can someone explain to me why there is a perfect fit (100% accuracy), is it because I have very limited data? what can I do to make my results mor
…
