…
ion="linear")(z) model = Model(inputs=[x.input, y.input], outputs=z) model.compile(loss='mse', optimizer = tf.keras.optimizers.Adam(learning_rate=0.01),metrics=['accuracy','mse'],run_eagerly=True) #, callbacks=[tensorboard] model.summary() Model: "model_2" __________________________________________________________________________________________________ Layer (type) Output Shape Param # Connected to ================================================================================================== input_1 (InputLayer) [(None, 3, 1)] 0 [] input_2 (InputLayer) [(None, 3, 1)] 0 [] conv1d (Conv1D) (None, 3, 256) 512 ['input_1[0][0]'] conv1d_3 (Conv1D) (None, 3, 256) 512 ['input_2[0][0]'] conv1d_1 (Conv1D) (None, 3, 128) 32896 ['conv1d[0][0]'] conv1d_4 (Conv1D) (None, 3, 128) 32896 ['conv1d_3[0][0]'] conv1d_2 (Conv1D) (None, 3, 64) 8256 ['conv1d_1[0][0]'] conv1d_5 (Conv1D) (None, 3, 64) 8256 ['conv1d_4[0][0]'] max_pooling1d (MaxPooling1D) (None, 1, 64) 0 ['conv1d_2[0][0]'] max_pooling1d_1 (MaxPooling1D) (None, 1, 64) 0 ['conv1d_5[0][0]'] concatenate (Concatenate) (None, 1, 128) 0 ['max_pooling1d[0][0]', 'max_pooling1d_1[0][0]'] bidirectional_1 (Bidirectional (None, 256) 263168 ['concatenate[0][0]'] ) flatten (Flatten) (None, 256) 0 ['bidirectional_1[0][0]'] dense (Dense) (None, 4) 1028 ['flatten[0][0]'] ================================================================================================== Total params: 347,524 Trainable params: 347,524 Non-trainable params: 0
