[site]: datascience
[post_id]: 33145
[parent_id]: 
[tags]: 
Keras exception: ValueError: Error when checking input: expected conv2d_1_input to have shape (150, 150, 3) but got array with shape (256, 256, 3)

I am working on multiclass classification of images. For this I created a CNN model in keras. I already pre-processed all images to size (150,150,3). Here is model summary- Layer (type) Output Shape Param # ================================================================= conv2d_1 (Conv2D) (None, 146, 146, 32) 2432 _________________________________________________________________ max_pooling2d_1 (MaxPooling2 (None, 73, 73, 32) 0 _________________________________________________________________ conv2d_2 (Conv2D) (None, 71, 71, 64) 18496 _________________________________________________________________ max_pooling2d_2 (MaxPooling2 (None, 35, 35, 64) 0 _________________________________________________________________ conv2d_3 (Conv2D) (None, 33, 33, 64) 36928 _________________________________________________________________ max_pooling2d_3 (MaxPooling2 (None, 16, 16, 64) 0 _________________________________________________________________ conv2d_4 (Conv2D) (None, 14, 14, 128) 73856 _________________________________________________________________ max_pooling2d_4 (MaxPooling2 (None, 7, 7, 128) 0 _________________________________________________________________ flatten_1 (Flatten) (None, 6272) 0 _________________________________________________________________ dense_1 (Dense) (None, 300) 1881900 _________________________________________________________________ dense_2 (Dense) (None, 10) 3010 ================================================================= Total params: 2,016,622 Trainable params: 2,016,622 Non-trainable params: 0 I am also using data augmentation and flow_from_directory method- train_datagen = image.ImageDataGenerator( rescale = 1./255, rotation_range=40, width_shift_range=0.2, height_shift_range=0.2, zoom_range=0.2, horizontal_flip=True, fill_mode='nearest') test_d
…
