…
odel.add(MaxPooling1D(pool_size=2)) model.add(Flatten()) model.add(Dense(100, activation='relu')) model.add(Dense(8, activation='softmax')) model.compile(loss='categorical_crossentropy', optimizer='adam', metrics=['accuracy']) return model model = create_nn_model() model.fit(X_train, y_train, epochs=100,batch_size=10,verbose=1) ValueError: Shapes (10, 10, 8) and (10, 8) are incompatible. Model: "sequential_81" _________________________________________________________________ Layer (type) Output Shape Param # ================================================================= conv1d_141 (Conv1D) (None, 8, 64) 12544 _________________________________________________________________ conv1d_142 (Conv1D) (None, 6, 64) 12352 _________________________________________________________________ dropout_61 (Dropout) (None, 6, 64) 0 _________________________________________________________________ max_pooling1d_61 (MaxPooling (None, 3, 64) 0 _________________________________________________________________ flatten_58 (Flatten) (None, 192) 0 _________________________________________________________________ module_wrapper_91 (ModuleWra (None, 8) 1544 ================================================================= Total params: 26,440 Trainable params: 26,440 Non-trainable params: 0 May be i may not have very much clear idea as to what kernel and filters. Or is it something to be done with the my 3d input shape? Can please anyone advice me on setting up the structure of data for the model's input layer (both X and Y)
