…
hout kernel regularizer # -------------------------------------------------------------------------------- model = build(reg=tf.keras.regularizers.L2(l2=0.01)) model.summary() history2 = model.fit( x=datagen.flow(x_train, y_train, batch_size=BATCH_SIZE), steps_per_epoch = len(x_train) / BATCH_SIZE, epochs=EPOCHS, validation_data=(x_validation, y_validation) ) Model summaries Without regularizer Model: "sequential" _________________________________________________________________ Layer (type) Output Shape Param # ================================================================= conv2d (Conv2D) (None, 32, 32, 32) 896 batch_normalization (Batch (None, 32, 32, 32) 128 Normalization) max_pooling2d (MaxPooling2 (None, 16, 16, 32) 0 D) flatten (Flatten) (None, 8192) 0 dense (Dense) (None, 512) 4194816 batch_normalization_1 (Bat (None, 512) 2048 chNormalization) dropout (Dropout) (None, 512) 0 dense_1 (Dense) (None, 10) 5130 ================================================================= Total params: 4203018 (16.03 MB) Trainable params: 4201930 (16.03 MB) Non-trainable params: 1088 (4.25 KB) _________________________________________________________________ With regularizer Model: "sequential_1" _________________________________________________________________ Layer (type) Output Shape Param # ================================================================= conv2d_1 (Conv2D) (None, 32, 32, 32) 896 batch_normalization_2 (Bat (None, 32, 32, 32) 128 chNormalization) max_pooling2d_1 (MaxPoolin (None, 16, 16, 32) 0 g2D) flatten_1 (Flatten) (None, 8192) 0 dense_2 (Dense) (None, 512) 4194816 batch_normalization_3 (Bat (None, 512) 2048 chNormalization) dropout_1 (Dropout) (None, 512) 0 dense_3 (Dense) (None, 10) 5130 ================================================================= Total params: 4203018 (16.03 MB) Trainable params: 4201930 (16.03 MB) Non-trainable params: 1088 (4.25 KB) _________________________________________________________________ Environment TensorFlow version: 2.14.1 Keras version: 2.14.0 Python 3.10.12 Ubuntu 22.04 LTS Note For more layers, the training does not improve with the regularizers where the val_accuracy stays around 0.01. _________________________________________________________________ Layer (type) Output Shape Param # ================================================================= image (InputLayer) [(None, 32, 32, 3)] 0 conv01 (Conv2D) (None, 32, 32, 32) 896 bn01 (BatchNormalization) (None, 32, 32, 32) 128 conv01_2 (Conv2D) (None, 32, 32, 32) 9248 bn01_2 (BatchNormalization (None, 32, 32, 32) 128 ) maxpool01 (MaxPooling2D) (None, 16, 16, 32) 0 drop01 (Dropout) (None, 16, 16, 32) 0 conv02 (Conv2D) (None, 16, 16, 64) 18496 bn02 (BatchNormalization) (None, 16, 16, 64) 256 conv02_2 (Conv2D) (None, 16, 16, 64) 36928 bn02_2 (BatchNormalization (None, 16, 16, 64) 256 ) maxpool02 (MaxPooling2D) (None, 8, 8, 64) 0 drop02 (Dropout) (None, 8, 8, 64) 0 conv03_1 (Conv2D) (None, 8, 8, 128) 73856 bn03 (BatchNormalization) (None, 8, 8, 128) 512 conv03_2 (Conv2D) (None, 8, 8, 128) 147584 bn03_2 (BatchNormalization (None, 8, 8, 128) 512 ) maxpool03 (MaxPooling2D) (None, 4, 4, 128) 0 drop03 (Dropout) (None, 4, 4, 128) 0 flat (Flatten) (None, 2048) 0 full01 (Dense) (None, 512) 1049088 bn (BatchNormalization) (None, 512) 2048 drop (Dropout) (None, 512) 0 classification (Dense) (None, 10) 5130 ================================================================= Total params: 1345066 (5.13 MB) Trainable params: 1343146 (5.12 MB) Non-trainable params: 1920 (7.50 KB) _________________________________________________________________ ```
