…
ivation('relu')) model.add(BatchNormalization(axis=chanDim)) model.add(MaxPooling2D(pool_size=(2,2))) model.add(Dropout(0.10)) model.add(Flatten()) model.add(Dense(classes)) model.add(Activation('sigmoid')) return model model = build(img_size, img_size, 3, 2) model.compile(loss='binary_crossentropy', optimizer=tf.keras.optimizers.Adam(learning_rate=0.0005), metrics=['accuracy']) model.summary() Model: "sequential" _________________________________________________________________ Layer (type) Output Shape Param # ================================================================= conv2d (Conv2D) (None, 150, 150, 64) 1792 _________________________________________________________________ activation (Activation) (None, 150, 150, 64) 0 _________________________________________________________________ batch_normalization (BatchNo (None, 150, 150, 64) 256 _________________________________________________________________ max_pooling2d (MaxPooling2D) (None, 75, 75, 64) 0 _________________________________________________________________ dropout (Dropout) (None, 75, 75, 64) 0 _________________________________________________________________ conv2d_1 (Conv2D) (None, 75, 75, 32) 18464 _________________________________________________________________ activation_1 (Activation) (None, 75, 75, 32) 0 _________________________________________________________________ batch_normalization_1 (Batch (None, 75, 75, 32) 128 _________________________________________________________________ max_pooling2d_1 (MaxPooling2 (None, 37, 37, 32) 0 _________________________________________________________________ dropout_1 (Dropout) (None, 37, 37, 32) 0 _________________________________________________________________ conv2d_2 (Conv2D) (None, 37, 37, 16) 4624 _________________________________________________________________ activation_2 (Activation) (None, 37, 37, 16) 0 _________________________________________________________________ batch_normalization_2 (Batch (None, 37, 37, 16) 64 _________________________________________________________________ max_pooling2d_2 (MaxPooling2 (None, 18, 18, 16) 0 _________________________________________________________________ dropout_2 (Dropout) (None, 18, 18, 16) 0 _________________________________________________________________ conv2d_3 (Conv2D) (None, 18, 18, 32) 4640 _________________________________________________________________ activation_3 (Activation) (None, 18, 18, 32) 0 _________________________________________________________________ batch_normalization_3 (Batch (None, 18, 18, 32) 128 _________________________________________________________________ max_pooling2d_3 (MaxPooling2 (None, 9, 9, 32) 0 _________________________________________________________________ dropout_3 (Dropout) (None, 9, 9, 32) 0 _________________________________________________________________ flatten (Flatten) (None, 2592) 0 _________________________________________________________________ dense (Dense) (None, 2) 5186 _________________________________________________________________ activation_4 (Activation) (None, 2) 0 ================================================================= Total params: 35,282 Trainable params: 34,994 Non-trainable params: 288 %%time history = model.fit(X_train, y_train_labels, epochs=100, batch_size=32, validation_split=0.30) Epoch 1/100 217/217 [==============================] - 10s 48ms/step - loss: 13.8373 - accuracy: 0.9567 - val_loss: 2.9341 - val_accuracy: 0.4953 Epoch 2/100 2
…
