…
I have trained a model for CNN and I am getting the error on the dense layer. Model code: def model(input_img): conv1 = Conv2D(5, (3, 3), padding='same')(input_img) #28 x 28 x 32 conv1 = BatchNormalization()(conv1) pool1 = MaxPooling2D(pool_size=(2, 2))(conv1) #14 x 14 x 32 relu1 = Activation('relu')(pool1) drop1 = Dropout(rate = 0.5)(relu1) conv2 = Conv2D(5, (3, 3), padding='same')(pool1) #14 x 14 x 64 conv2 = BatchNormalization()(conv2) pool2 = MaxPooling2D(pool_size=(2, 2))(conv2) #7 x 7 x 64 relu2 = Activation('relu')(pool2) drop2 = Dropout(rate=0.5)(relu2) dense = Dense(2, activation='softmax')(drop2) # 28 x 28 x 1 return dense Model Summary: Layer (type) Output Shape Param # ================================================================= input_2 (InputLayer) (None, 242, 242, 1) 0 _________________________________________________________________ conv2d_4 (Conv2D) (None, 242, 242, 5) 50 _________________________________________________________________ batch_normalization_4 (Batch (None, 242, 242, 5) 20 _________________________________________________________________ max_pooling2d_4 (MaxPooling2 (None, 121, 121, 5) 0 _________________________________________________________________ conv2d_5 (Conv2D) (None, 121, 121, 5) 230 _________________________________________________________________ batch_normalization_5 (Batch (None, 121, 121, 5) 20 _________________________________________________________________ max_pooling2d_5 (MaxPooling2 (None, 60, 60, 5) 0 _________________________________________________________________ activation_4 (Activation) (None, 60, 60, 5) 0 _________________________________________________________________ dropout_4 (Dropout) (None, 60, 60, 5) 0 _________________________________________________________________ dense_1 (Dense) (None, 60, 60, 2) 12 ================================================================= Total params: 332 Trainable params: 312 Non-trainable params: 20 But when I am trying to train the model model_train = model.fit(train_X, train_ground, batch_size=batch_size,epochs=epochs,verbose=1,validation_data=(valid_X, valid_ground)) I get the following error ValueError Traceback (most recent call last) in () ----> 1 model_tra
…
