…
I'm running what I believe is a pretty lightweight CNN on an nVidia Jetson Nano with Jetpack 4.4. nVidia claims the Nano can run a ResNet-50 at 36fps , so I expected my much smaller network to run at 30+ fps with ease. Actually though, each forward pass takes 160-180ms, so I score 5-6 fps at best. At production predictions have to be made real-time on a live camera stream, so improving the per-sample-performance by using batches > 1 is not an option. Is there something fundamentally wrong with my inference code? Am I wrong thinking the network architecture should be pretty fast to compute compared to e.g. ResNet-50? What can I do to find out what exactly takes so much time? My CNN: Model: "sequential" _________________________________________________________________ Layer (type) Output Shape Param # ================================================================= lambda (Lambda) (None, 210, 848, 3) 0 _________________________________________________________________ max_pooling2d (MaxPooling2D) (None, 210, 282, 3) 0 _________________________________________________________________ conv2d (Conv2D) (None, 102, 138, 16) 2368 _________________________________________________________________ max_pooling2d_1 (MaxPooling2 (None, 51, 69, 16) 0 _________________________________________________________________ conv2d_1 (Conv2D) (None, 24, 33, 32) 12832 _________________________________________________________________ max_pooling2d_2 (MaxPooling2 (None, 12, 16, 32) 0 _________________________________________________________________ conv2d_2 (Conv2D) (None, 4, 6, 64) 51264 _________________________________________________________________ max_pooling2d_3 (MaxPooling2 (None, 2, 3, 64) 0 _________________________________________________________________ flatten (Flatten) (None, 384) 0 _________________________________________________________________ dropout (Dropout) (None, 384) 0 _________________________________________________________________ dense (Dense) (None, 64) 24640 _________________________________________________________________ dropout_1 (Dropout) (None, 64) 0 _________________________________________________________________ elu (ELU) (None, 64) 0 _________________________________________________________________ dense_1 (Dense) (None, 1) 65 ================================================================= Total params: 91,169 Trainable params: 91,169 Non-trainable params: 0 _________________________________________________________________ Code: import numpy as np import cv2 import time import tensorflow as tf from tensorflow import keras model_name = 'v9_small_FC_epoch_3' loaded_model = keras.models.load_model('/home/jetson/notebook
…
