…
vation="relu", padding="SAME"), tf.keras.layers.Conv2D(256, 3, activation="relu", padding="SAME"), tf.keras.layers.Dense(4096, activation="relu"), tf.keras.layers.Dense(4096, activation="relu"), tf.keras.layers.Dense(1000, activation="softmax"), ]) Note that I removed the normalization and set an input of 227*227 instead of 224*224. See this question for details. Here is the summary from Keras: Model: "sequential" _________________________________________________________________ Layer (type) Output Shape Param # ================================================================= conv2d (Conv2D) (None, 55, 55, 96) 34944 _________________________________________________________________ max_pooling2d (MaxPooling2D) (None, 27, 27, 96) 0 _________________________________________________________________ conv2d_1 (Conv2D) (None, 27, 27, 256) 614656 _________________________________________________________________ max_pooling2d_1 (MaxPooling2 (None, 13, 13, 256) 0 _________________________________________________________________ conv2d_2 (Conv2D) (None, 13, 13, 384) 885120 _________________________________________________________________ conv2d_3 (Conv2D) (None, 13, 13, 384) 1327488 _________________________________________________________________ conv2d_4 (Conv2D) (None, 13, 13, 256) 884992 _________________________________________________________________ dense (Dense) (None, 13, 13, 4096) 1052672 _________________________________________________________________ dense_1 (Dense) (None, 13, 13, 4096) 16781312 _________________________________________________________________ dense_2 (Dense) (None, 13, 13, 1000) 4097000 ================================================================= Total params: 25,678,184 Trainable params: 25,678,184 Non-trainable params: 0 _________________________________________________________________ I'm really far from 60 million. So, how did they sum 60 million params? For reference, here is the architecture of the model as described in Sec. 3.5 of the paper: The first convolutional l
…
