…
loss: 0.000112, acc.: 100.00%] [G loss: 0.000931] 20 [D loss: 0.000127, acc.: 100.00%] [G loss: 0.001128] 21 [D loss: 0.000054, acc.: 100.00%] [G loss: 0.000581] 22 [D loss: 0.000049, acc.: 100.00%] [G loss: 0.000507] 23 [D loss: 0.000027, acc.: 100.00%] [G loss: 0.000414] 24 [D loss: 0.000046, acc.: 100.00%] [G loss: 0.000371] 25 [D loss: 0.000019, acc.: 100.00%] [G loss: 0.000319] Neural network Generator Expand a vector of random values of shape (100,) into a (32,32,3) image. Layer (type) Output Shape Param # ================================================================= dense_1 (Dense) (None, 4096) 413696 _________________________________________________________________ reshape (Reshape) (None, 4, 4, 256) 0 _________________________________________________________________ up_sampling2d (UpSampling2D) (None, 8, 8, 256) 0 _________________________________________________________________ conv2d_4 (Conv2D) (None, 8, 8, 128) 295040 _________________________________________________________________ batch_normalization_3 (Batch (None, 8, 8, 128) 512 _________________________________________________________________ activation (Activation) (None, 8, 8, 128) 0 _________________________________________________________________ up_sampling2d_1 (UpSampling2 (None, 16, 16, 128) 0 _________________________________________________________________ conv2d_5 (Conv2D) (None, 16, 16, 128) 147584 _________________________________________________________________ batch_normalization_4 (Batch (None, 16, 16, 128) 512 _________________________________________________________________ activation_1 (Activation) (None, 16, 16, 128) 0 _________________________________________________________________ up_sampling2d_2 (UpSampling2 (None, 32, 32, 128) 0 _________________________________________________________________ conv2d_6 (Conv2D) (None, 32, 32, 128) 147584 _________________________________________________________________ batch_normalization_5 (Batch (None, 32, 32, 128) 512 _________________________________________________________________ activation_2 (Activation) (None, 32, 32, 128) 0 _________________________________________________________________ conv2d_7 (Conv2D) (None, 32, 32, 3) 3459 _________________________________________________________________ activation_3 (Activation) (None, 32, 32, 3) 0 ================================================================= Total params: 1,008,899 Trainable params: 1,008,131 Non-trainable params: 768 Discriminator Reduce a image of size (32, 32, 3) down to a probability between (0,1). Layer (type) Output Shape Param # ================================================================= conv2d (Conv2D) (None, 16, 16, 64) 1792 _________________________________________________________________ leaky_re_lu (LeakyReLU) (None, 16, 16, 64) 0 _________________________________________________________________ dropout (Dropout) (None, 16, 16, 64) 0 _________________________________________________________________ conv2d_1 (Conv2D) (None, 8, 8, 128) 73856 _________________________________________________________________ batch_normalization (BatchNo (None, 8, 8, 128) 512 _________________________________________________________________ leaky_re_lu_1 (LeakyReLU) (None, 8, 8, 128) 0 _________________________________________________________________ dropout_1 (Dropout) (None, 8, 8, 128) 0 _________________________________________________________________ conv2d_2 (Conv2D) (None, 4, 4, 128) 147584 _________________________________________________________________ batch_normalization_1 (Batch (None, 4, 4, 128) 512 _________________________________________________________________ leaky_re_lu_2 (LeakyReLU) (None, 4, 4, 128) 0 _________________________________________________________________ dropout_2 (Dropout) (None, 4, 4, 128) 0 _________________________________________________________________ conv2d_3 (Conv2D) (None, 4, 4, 256) 295168 _________________________________________________________________ batch_normalization_2 (Batch (None, 4, 4, 256) 1024 _________________________________________________________________ leaky_re_lu_3 (LeakyReLU) (None, 4, 4, 256) 0 _________________________________________________________________ dropout_3 (Dropout) (None, 4, 4, 256) 0 _________________________________________________________________ flatten (Flatten) (None, 4096) 0 _________________________________________________________________ dense (Dense) (None, 1) 4097 ================================================================= Total params: 524,545 Trainable params: 523,521 Non-trainable params: 1,024 Code dcgan = DCGAN( dataset=X, rows=32, cols=32, channels=3, latent_dim=100, batch_size=256, ) class DCGAN(): def __init__(self, dataset, rows, cols, channels, latent_dim = 100, batch_size=256): # data self.dataset = dataset self.batch_size = batch_size # I
…
